Assets/Hummingbird/NNModels/Hummingbird_03.onnx (onnx, 645331 bytes, 10 tensors)

network_body._body_endoder.seq_layers.0.weight f4 [256, 46]
-0.058207046 -0.010357837 0.113880515 0.05556308 0.031224102 -0.041378256 -0.44028616 0.19515501
0.03681061 0.21945408 0.3075393 -0.14695588 0.10226366 -0.16201049 0.19092129 0.08082069
0.1108165 0.07302852 -0.06900024 -0.09915843 -0.16872253 -0.21135414 -0.19004422 0.31019703
0.29562327 -0.019698147 -0.0034890876 -0.110928394 0.13263625 0.024063315 -0.21153845 -0.20093521
0.003909555 0.3357424 -0.10987071 -0.0912638 0.14566739 -0.11403454 0.09311508 0.007479199
0.23887114 -0.17316967 -0.33872664 0.03617871 0.14519948 0.18828547 -0.10151038 -0.27325258
0.23441346 0.046904568 -0.0019773303 -0.10111107 0.21276233 0.15896764 0.14722446 0.12074718
-0.035943694 0.06216332 0.31245402 -0.24127673 -0.2170271 0.036903616 -0.18885273 -0.12948382
0.36511555 0.09739081 0.14943647 0.12584618 -0.12507606 0.0036178634 -0.105634905 0.040593676
0.028594336 0.045392793 0.2192559 0.10919259 -0.07949205 0.013828384 0.25565588 -0.020454872
-0.20946805 -0.14209695 0.045641307 0.0105186645 -0.20350753 0.02773182 0.20209935 0.13402803
0.046295524 0.25899535 0.012784792 0.009957877 0.0788139 -0.27390003 0.32125458 0.006124299
-0.20686316 0.044963144 -0.14881016 0.17409049 0.0096900435 -0.022537 0.045270257 -0.052468043
0.1179691 0.07488544 0.16486824 -0.1377172 -0.06116695 0.44146544 0.09687114 -0.10133804
0.009630118 0.14345978 -0.12625033 -0.00806319 0.048993062 0.18078601 -0.06352656 -0.029655853
0.0011586035 -0.05393174 -0.3141114 -0.1969512 0.026358765 0.05157536 -0.047556452 -0.11842829
0.009937664 -0.16297258 0.06527582 0.014703085 -0.004253683 -0.2716446 0.11408125 0.11645062
-0.02459498 -0.17108256 0.08705392 -0.33483487 -0.046723858 0.082233764 0.11609179 0.23809746
-0.014959109 -0.17039478 0.22051506 -0.19968818 -0.00011210841 0.071843795 -0.09051213 -0.10876847
-0.23334204 0.10576033 0.10238691 0.030885546 -0.12901562 -0.051999673 -0.0939369 0.06545918
0.10139789 0.17747231 0.107511416 0.02343107 0.06511109 -0.23205666 -0.10748704 -0.1221796
-0.06969281 -0.28806916 0.22412324 -0.26078248 0.080720544 -0.15964869 0.11699922 -0.072453685
0.032998897 -0.083355606 -0.0060310196 -0.12625362 -0.24966297 0.09743951 0.036232963 0.036513284
0.22839792 0.16528624 0.24739203 -0.10911563 -0.20472752 -0.14272965 -0.037237655 0.33166096
0.16305439 0.07837728 -0.0007152716 -0.12264294 0.12124422 0.1293215 0.04962239 0.026836952
-0.10688787 0.27309376 -0.062101666 -0.10060971 0.16429104 0.026106441 -0.086297244 -0.063470714
0.17990267 0.077458724 0.09710346 0.011574713 0.2635791 -0.11801309 -0.09611205 -0.30842844
0.052482937 -0.00825409 0.17390452 0.086735085 -0.1343767 -0.05657801 -0.045603987 0.23658848
0.1548241 0.28470048 0.019798942 -0.035322316 0.2161254 -0.04315234 0.058126222 -0.20734765
-0.0992757 0.044319723 0.107147746 -0.07454125 0.11119846 -0.20122159 -0.2638895 -0.03217128
0.035549726 -0.18972237 0.124045916 0.09759131 -0.0876202 0.12517509 0.24288346 0.042841997
0.014756494 0.00010330678 -0.04968817 0.17031205 0.08979391 0.070674635 0.15111269 0.06808579
00000000: 836a 6ebd ebb3 29bc 303a e93d 1d96 633d
00000010: b0c9 ff3c 3f7c 29bd 306d e1be b7d6 473e
00000020: b9c6 163d 92b8 603e cb75 9d3e 9a7b 16be
00000030: 9c6f d13d 14e6 25be df80 433e 5185 a53d
00000040: c3f3 e23d fa8f 953d ff4f 8dbd 9313 cbbd
00000050: 99c5 2cbe 386d 58be f49a 42be 25d2 9e3e
00000060: ef5b 973e 025e a1bc 2da9 64bb 6d2e e3bd
00000070: ccd1 073e 6e20 c53c 899d 58be f6c1 4dbe
00000080: b91b 803b 6ee6 ab3e e503 e1bd 84e8 babd
00000090: d529 153e f18a e9bd 1eb3 be3d 1214 f53b
000000a0: a39a 743e 6453 31be 946d adbe 2130 143d
000000b0: 2caf 143e e8cd 403e ade4 cfbd c3e7 8bbe
000000c0: 150a 703e 011f 403d 1996 01bb 5213 cfbd
000000d0: 5ede 593e 6ac8 223e 02c2 163e 4c4a f73d
000000e0: b239 13bd f79e 7e3d f9f9 9f3e 3f11 77be
000000f0: 5a3c 5ebe 3f28 173d 9c62 41be 6897 04be
00000100: 6df0 ba3e d574 c73d e005 193e d2dd 003e
00000110: f013 00be ad19 6d3b 1d57 d8bd 8e45 263d
00000120: ab3e ea3c cbed 393d 9e84 603e 5da0 df3d
00000130: bacc a2bd 7290 623c 54e5 823e fa90 a7bc
00000140: cb7e 56be dd81 11be 61f2 3a3d 7a56 2c3c
00000150: 4764 50be d72d e33c 22f3 4e3e a53e 093e
00000160: 60a0 3d3d 0a9b 843e 4e77 513c 5d26 233c
00000170: 2f69 a13d a03c 8cbe 7b7b a43e 58ae c83b
00000180: f0d3 53be 462b 383d b161 18be c744 323e
00000190: fdc2 1e3c 849f b8bc 4e6d 393d bbe8 56bd
000001a0: c999 f13d 8a5d 993d 38d3 283e bd05 0dbe
000001b0: 328a 7abd c207 e23e 6064 c63d 518a cfbd
000001c0: a4c7 1d3c 1fe7 123e c447 01be 781b 04bc
000001d0: f3ac 483d f81f 393e 371a 82bd d5f0 f2bc
000001e0: 48dc 973a 87e7 5cbd 36d3 a0be 93ad 49be
000001f0: 56ee d73c af40 533d 8eca 42bd 888a f2bd
00000200: 95d1 223c 49e2 26be 54af 853d 35e5 703c
00000210: 7b62 8bbb 0015 8bbe 6ea3 e93d aa7d ee3d
00000220: 697b c9bc 4430 2fbe 5349 b23d 7a6f abbe
00000230: 8461 3fbd 2d6a a83d 88c1 ed3d d2cf 733e
00000240: 0d17 75bc f87b 2ebe b3ce 613e 0f7b 4cbe
00000250: bf1b ebb8 d722 933d 6c5e b9bd 01c2 debd
00000260: 37f1 6ebe df98 d83d 3ab0 d13d af03 fd3c
00000270: ac1c 04be 9cfd 54bd fd61 c0bd 760f 863d
00000280: b2a9 cf3d 4dbb 353e f22e dc3d 84f2 bf3c
00000290: f758 853d 43a0 6dbe 2a22 dcbd 4c39 fabd
000002a0: 1bbb 8ebd cd7d 93be 9080 653e 4885 85be
000002b0: d050 a53d f27a 23be 499d ef3d 9962 94bd
000002c0: da29 073d 58b6 aabd dc9f c5bb a148 01be
000002d0: a6a7 7fbe 5e8e c73d 0469 143d f48e 153d
000002e0: 25e1 693e cc40 293e 5654 7d3e 0478 dfbd
000002f0: 17a4 51be b927 12be 8386 18bd 77cf a93e
00000300: bbf7 263e 4484 a03d 1181 3bba 392c fbbd
00000310: e44e f83d db6c 043e d940 4b3d 2bd9 db3c
00000320: 07e8 dabd f2d2 8b3e 515e 7ebd 770c cebd
00000330: e93b 283e 2ddd d53c 9cbc b0bd effc 81bd
00000340: 6838 383e aea2 9e3d 2ede c63d dda3 3d3c
00000350: d7f3 863e d9b0 f1bd 65d6 c4bd 55ea 9dbe
00000360: 59f8 563d 2a3c 07bc 0714 323e 2aa2 b13d
00000370: 0c9a 09be 58be 67bd 3fcb 3abd 4044 723e
00000380: 358a 1e3e 43c4 913e 6431 a23c 22ae 10bd
00000390: fa4f 5d3e 82c0 30bd c315 6e3d f152 54be
000003a0: 0f51 cbbd 9988 353d 4770 db3d 15a9 98bd
000003b0: 05bc e33d 080d 4ebe 861c 87be 08c6 03bd
000003c0: 979c 113d 9546 42be c90b fe3d f4dd c73d
000003d0: 3872 b3bd e62d 003e 71b6 783e 177b 2f3d
000003e0: 39c5 713c 68a6 d838 d385 4bbd 4866 2e3e
000003f0: dfe5 b73d ddbd 903d 49bd 1a3e 9070 8b3d

network_body._body_endoder.seq_layers.0.bias f4 [256]
0.005264023 0.012465011 -0.0034283195 0.03189535 0.028708408 0.014205848 0.029549332 0.029917499
0.039691176 0.005163126 0.0079569565 0.011626672 -0.017796254 -0.007862107 0.011428501 0.025465185
0.008320474 0.008841911 0.01553461 0.026715986 0.020669138 -0.002712873 0.019696409 0.021942697
-0.0050065913 0.02052886 0.003535848 0.022489242 -0.0063748974 0.047714755 0.03505463 0.0072826734
0.021251412 0.026091525 0.004387691 0.004147362 0.018622642 -0.01708034 0.010998554 0.003214261
0.0018630521 0.0100633595 0.005502175 0.00989929 0.00036941617 0.02922686 0.016332611 0.005710323
-0.0065759243 -0.008268 0.0071905516 0.0071003726 0.02091848 0.0084746145 0.0053785304 -0.0026361381
0.006247159 0.010510487 0.010189665 0.01651024 0.018145064 0.019656802 0.008062267 0.00054870266
0.02587566 0.015886173 0.009827117 0.010064225 -0.024007093 -0.006892776 0.02654625 0.00084825617
0.024540646 0.028802948 0.019459235 0.0029793219 0.018869814 0.021321794 -0.0074523934 0.017378997
0.015397303 0.038640898 0.0078926645 0.006826691 0.037095647 0.040242255 0.0016947304 -0.0044669067
0.007291975 -0.0068803984 0.014570433 -0.01040146 0.032676008 0.014636662 0.006831144 0.0036589915
0.010912698 0.02896094 0.026429195 0.014586045 -0.010221748 0.020289937 0.015804866 0.002637478
0.0130116865 0.023890214 0.018449802 0.013054233 0.01048613 0.020670054 0.010911816 0.0047629806
-0.013948506 -0.008616552 0.04235721 -0.0006443884 0.05126884 -0.011355503 0.014309131 0.03452193
-0.0062654684 0.0035707338 0.02539048 0.036392324 0.0044157365 0.03211813 0.040220097 -0.0001282099
0.026349423 0.03423641 0.04334749 0.013791345 0.009849487 0.017830953 0.005040637 0.0051837126
-0.0030721002 -0.0065598246 0.016066123 -0.0048105926 0.003908517 0.029442705 0.02068394 -0.0047584684
0.0144742355 0.018781723 0.013067057 0.067912064 0.032050695 0.010993491 0.007606172 0.009158583
0.0130773205 0.017709652 0.0014616137 0.013093283 0.011498085 0.0024935731 0.030999035 0.016906796
-0.018318383 -0.008790296 0.0071609784 0.027932098 0.026784524 0.016125489 0.0024594406 0.016044758
0.009070539 0.024517983 0.011836738 0.007276081 0.013654057 0.005085075 0.017747402 0.021763228
0.008734796 0.03857538 0.0076278546 0.030281251 -0.007986121 -0.003154937 0.017526822 0.026672209
0.041263316 0.023682125 0.0092800185 -0.011382892 0.011359019 0.024785945 -0.0141284205 -0.010991937
0.017402457 0.0024387792 0.005618251 0.02680281 -0.008140964 -0.0044884896 0.009253619 0.025506942
0.0072478666 -0.0050805146 0.0075954758 0.029595342 0.013421725 0.010588156 0.013090653 0.0010325212
0.029827768 0.0032319229 0.0076596923 -0.009130853 -0.007323785 -0.02168488 0.014670254 0.010458471
0.029726103 0.003792639 0.019167459 -0.002611738 -0.004981617 -0.014553624 0.009612231 -0.0060780444
0.012481164 0.0053385515 -0.00019760146 0.011097513 0.01408878 0.04856254 0.026971044 0.031053573
0.0064780624 0.032222107 0.012349391 0.008317874 0.015989969 0.006478686 0.005480382 0.006425287
0.002146789 -0.008903616 0.019752262 -0.009130907 -0.0067880843 0.011636685 -0.0018649874 0.017956596
0.031183034 0.00523384 -0.0004518172 -0.013889705 -0.01208947 0.017666915 0.017269101 0.0040053814
00000000: d37d ac3b 0c3a 4c3c a8ad 60bb b3a4 023d
00000010: e52d eb3c a5bf 683c 7111 f23c 8b15 f53c
00000020: 3793 223d 712f a93b e55d 023c cc7d 3e3c
00000030: 73c9 91bc 11d0 00bc 9c3e 3b3c 5d9c d03c
00000040: 9952 083c aadd 103c e084 7e3c 7cdb da3c
00000050: 5352 a93c 75ca 31bb 5d5a a13c 2cc1 b33c
00000060: 550e a4bb 242c a83c b0b9 673b 5c3b b83c
00000070: 84e4 d0bb 8c70 433d 7295 0f3d 7ea3 ee3b
00000080: 7117 ae3c e5bd d53c 9fc6 8f3b 98e6 873b
00000090: 838e 983c 12ec 8bbc 4733 343c 5aa6 523b
000000a0: a831 f43a cae0 243c 974b b43b a230 223c
000000b0: 33ae c139 2b6d ef3c f8cb 853c a91d bb3b
000000c0: da7a d7bb 8176 07bc b89e eb3b 3eaa e83b
000000d0: 3b5d ab3c 1cd9 0a3c 623e b03b 0fc3 2cbb
000000e0: f8b4 cc3b 2d34 2c3c 8df2 263c 7c40 873c
000000f0: f5a4 943c 4d07 a13c 9917 043c d0d6 0f3a
00000100: 31f9 d33c b823 823c eb01 213c 6be4 243c
00000110: 86aa c4bc ccdc e1bb 8577 d93c 825d 5e3a
00000120: 7709 c93c 29f4 eb3c f968 9f3c ba40 433b
00000130: de94 9a3c 0bab ae3c 3533 f4bb 665e 8e3c
00000140: f844 7c3c eb45 1e3d 3c50 013c 6fb2 df3b
00000150: 9bf1 173d 10d5 243d b721 de3a 215f 92bb
00000160: 85f1 ee3b f774 e1bb d3b8 6e3c e36a 2abc
00000170: 47d7 053d 9cce 6f3c cad7 df3b b1cb 6f3b
00000180: 2ccb 323c 7e3f ed3c 0a82 d83c 4ffa 6e3c
00000190: 1e79 27bc 1537 a63c 3579 813c 8ad9 2c3b
000001a0: f82e 553c 69b5 c33c 0a24 973c 6ce1 553c
000001b0: 04ce 2b3c 3f54 a93c 79c7 323c c712 9c3b
000001c0: 4688 64bc 702c 0dbc c17e 2d3d 2cec 28ba
000001d0: 46ff 513d 6f0c 3abc d870 6a3c de66 0d3d
000001e0: 8f4e cdbb f902 6a3b b2ff cf3c 1e10 153d
000001f0: e2b1 903b 4d8e 033d d4bd 243d 1570 06b9
00000200: bfda d73c 7a3b 0c3d 238d 313d 18f5 613c
00000210: be5f 213c 3812 923c ee2b a53b 22dc a93b
00000220: 4a55 49bb ccf3 d6bb 1a9d 833c 2da2 9dbb
00000230: 0413 803b d431 f13c 5e71 a93c edec 9bbb
00000240: 5825 6d3c 21dc 993c 3617 563c 7b15 8b3d
00000250: 9747 033d 0b1e 343c 323d f93b e20d 163c
00000260: 4242 563c d513 913c 9e93 bf3a 3685 563c
00000270: 7762 3c3c 376b 233b b0f1 fd3c 1f80 8a3c
00000280: 6f10 96bc 2c05 10bc a4a6 ea3b dbd1 e43c
00000290: 386b db3c 9a19 843c 912e 213b 4c70 833c
000002a0: 999c 143c f0d9 c83c e1ee 413c 316c ee3b
000002b0: 44b5 5f3c b3a0 a63b 0063 913c cc48 b23c
000002c0: 641c 0f3c 3801 1e3d 15f3 f93b 6310 f83c
000002d0: 38d8 02bc 0fc3 4ebb 6994 8f3c ad7f da3c
000002e0: b903 293d 0401 c23c 380b 183c 4f7f 3abc
000002f0: 2e1b 3a3c e50b cb3c e47a 67bc 8617 34bc
00000300: 998f 8e3c edd3 1f3b 4e19 b83b 9191 db3c
00000310: ae61 05bc 2e14 93bb 7e9c 173c eff3 d03c
00000320: 837f ed3b 727a a6bb 78e3 f83b ee71 f23c
00000330: cbe6 5b3c f279 2d3c 2e7a 563c aa55 873a
00000340: 5d59 f43c abce 533b 28fe fa3b 9399 15bc
00000350: 5dfc efbb 7da4 b1bc 815b 703c 025a 2b3c
00000360: 2884 f33c ec8d 783b 1305 9d3c b129 2bbb
00000370: d53c a3bb 5372 6ebc 9e7c 1d3c 552a c7bb
00000380: cc7d 4c3c 04ef ae3b 3d33 4fb9 58d2 353c
00000390: a0d4 663c 84e9 463d 61f2 dc3c 1064 fe3c
000003a0: ed45 d43b 54fb 033d 1a55 4a3c b147 083c
000003b0: 65fd 823c 284b d43b c794 b33b 378b d23b
000003c0: 25b1 0c3b 79e0 11bc 7fcf a13c cd99 15bc
000003d0: 946e debb cba7 3e3c 9872 f4ba b619 933c
000003e0: 9073 ff3c a280 ab3b e1e1 ecb9 a591 63bc
000003f0: ea12 46bc 35ba 903c ee77 8d3c 933f 833b

network_body._body_endoder.seq_layers.2.weight f4 [256, 256]
0.011550561 0.028219284 -0.0469689 0.01984313 0.07956261 -0.019203167 -0.052213732 0.116592996
0.013229243 -0.08113195 -0.020186612 -0.016074974 -0.014754782 0.054129083 0.084073395 0.009848852
0.0050709755 -0.020688524 -0.06382942 0.057851516 0.087800436 0.010931401 -0.023669751 0.027741237
0.07741186 -0.036936816 0.014713931 0.047950726 -0.07312655 0.06523864 0.052269585 -0.037507113
0.040353082 -0.01424153 -0.0014145903 -0.24614237 0.018264586 0.016660899 -3.7565143e-05 -0.030723132
-0.09394834 0.11607179 -0.08060426 0.02337875 -0.09534772 0.003665576 -0.05468671 -0.03289961
-0.10295915 -0.034246396 -0.14037818 -0.044074163 0.06455192 0.12148845 -0.05620427 -0.016374147
-0.050906368 -0.034720384 -0.026624762 0.012312662 -0.08551291 -0.09861509 -0.019414881 0.08044035
0.11313396 -0.032598887 -0.18635623 -0.11110841 -0.00387285 -0.07630343 -0.096742384 0.07943162
0.050490517 -0.06751672 0.0009487778 -0.0112325065 0.024387127 0.11919731 -0.006097632 0.032847
0.018391842 0.043297976 0.036140237 -0.085671835 0.015075557 0.032040525 -0.14234059 -0.0037596896
0.050579146 -0.13600622 -0.030095333 -0.053972658 -0.020325888 0.025593387 -0.00948353 -0.0030957225
0.12643339 0.0738309 0.039322913 -0.033246677 -0.020373767 0.011424225 0.041944943 -0.12887652
-0.10308716 -0.10290163 0.0032273098 -0.02246802 -0.043117985 -0.006276633 -0.096699 0.059441973
0.05033264 0.057321444 -0.10803984 0.06765352 -0.03262357 0.09919432 -0.1418507 -0.0041948245
-0.029667309 0.0035659694 -0.084185116 0.084208526 0.03723208 0.0031884687 0.025946239 0.012310949
0.08853378 -0.004210277 -0.0400939 -0.008973085 0.02307776 -0.13932686 0.013148267 -0.0024145679
-0.013208709 0.13366768 -0.06562307 0.074361965 -0.017540641 0.044929117 0.0029185861 -0.0012126064
-0.056676462 0.009921027 -0.080810584 0.027013075 0.073014595 0.10280149 -0.17361298 0.05037899
-0.013011313 -0.06915091 -0.057806473 0.025274586 -0.011996808 -0.006730119 -0.022632655 0.10849028
-0.13543701 0.061278846 0.07152109 0.0154903075 0.034940485 -0.0232491 -0.089037485 0.12310124
0.040324915 0.14293933 0.11401974 0.09497962 0.10849859 -0.067916 -0.036919337 0.040633354
0.040180977 -0.08767363 0.030134631 0.06348698 -0.037479855 -0.053066164 -0.049768187 0.030356528
-0.017839193 -0.11159985 -0.0067010703 0.053832848 -0.07534113 0.13315806 -0.018170174 -0.055080846
-0.013613603 -0.15636516 0.07553396 0.0018785495 -0.09060433 -0.029538866 0.0040597096 0.052947223
-0.045677703 0.07011324 -0.011934627 0.04681798 -0.16030282 0.008487962 -0.021899773 0.04462082
0.053280722 -0.025818564 -0.10007882 0.11699675 -0.022427129 -0.09251179 0.0113671655 0.07528409
-0.033193056 -0.03551327 0.082189485 0.053958327 0.12944722 -0.179648 -0.03366146 -0.021202387
-0.0064974227 -0.008656969 0.055530217 -0.046186328 0.013647812 -0.01712139 -0.045780085 0.0314123
-0.08247978 -0.12506722 -0.02482631 -0.037752893 0.03805192 -0.10129196 -0.05709713 0.10781916
-0.06904559 0.061027016 0.14654988 0.022347707 -0.039092317 0.06959149 -0.13051063 0.06295028
-0.035712954 -0.20756394 0.074215785 -0.048538826 -0.036291767 -0.118282154 -0.023106312 -0.021086786
00000000: 903e 3d3c 212c e73c 7662 40bd 0f8e a23c
00000010: b9f1 a23d f64f 9dbc 11de 55bd 4fc8 ee3d
00000020: 78bf 583c 8228 a6bd 655e a5bc aaaf 83bc
00000030: 0bbe 71bc 75b6 5d3d ac2e ac3d 145d 213c
00000040: 6d2a a63b fb7a a9bc 00b9 82bd b6f5 6c3d
00000050: b7d0 b33d 9e19 333c 11e7 c1bc 9741 e33c
00000060: 1c8a 9e3d 0f4b 17bd b312 713c fb67 443d
00000070: 5fc3 95bd d69b 853d a218 563d 0fa1 19bd
00000080: 4649 253d 4e55 69bc c669 b9ba bf0c 7cbe
00000090: 9d9f 953c 707c 883c 448f 1db8 14af fbbc
000000a0: fd67 c0bd 0cb7 ed3d d913 a5bd cb84 bf3c
000000b0: aa45 c3bd 293a 703b 2cff 5fbd bec1 06bd
000000c0: 3fdc d2bd f345 0cbd 4cbf 0fbe 1c87 34bd
000000d0: cc33 843d f0ce f83d 7336 66bd 1323 86bc
000000e0: 3283 50bd f636 0ebd 2c1c dabc 0cbb 493c
000000f0: 6421 afbd b5f6 c9bd f50b 9fbc e9bd a43d
00000100: c7b2 e73d 6986 05bd 2bd4 3ebe ce8c e3bd
00000110: a4cf 7dbb f944 9cbd df20 c6bd 0cad a23d
00000120: 25cf 4e3d 3546 8abd 66b7 783a 8c08 38bc
00000130: 83c7 c73c b81d f43d a5ce c7bb 938a 063d
00000140: 7daa 963c 3859 313d c907 143d b774 afbd
00000150: 78ff 763c ed3c 033d bbc1 11be 2065 76bb
00000160: 142c 4f3d 3745 0bbe 7d8a f6bc 6f12 5dbd
00000170: 7a82 a6bc 39a9 d13c cf60 1bbc 9be1 4abb
00000180: c177 013e a834 973d 1011 213d ab2d 08bd
00000190: e3e6 a6bc ac2c 3b3c 76ce 2b3d 35f8 03be
000001a0: 5c1f d3bd 17be d2bd 4681 533b da0e b8bc
000001b0: 7c9c 30bd 37ac cdbb 200a c6bd 6d79 733d
000001c0: 9929 4e3d e4c9 6a3d fe43 ddbd ee8d 8a3d
000001d0: 4ba0 05bd 6426 cb3d 4f41 11be bd74 89bb
000001e0: db08 f3bc 0ab3 693b 3f69 acbd 8575 ac3d
000001f0: aa80 183d a1f5 503b 358d d43c ddb3 493c
00000200: 3351 b53d 5df6 89bb 8039 24bd d903 13bc
00000210: 920d bd3c b3ab 0ebe d46b 573c ba3d 1ebb
00000220: 5769 58bc 2ee0 083e 6365 86bd 164b 983d
00000230: 64b1 8fbc 9807 383d c045 3f3b 52f0 9eba
00000240: 9425 68bd ce8b 223c 0580 a5bd 864a dd3c
00000250: ad88 953d 9689 d23d 9ac7 31be 335a 4e3d
00000260: 672d 55bc fe9e 8dbd 7bc6 6cbd a60c cf3c
00000270: 438e 44bc 5588 dcbb 1e68 b9bc 2730 de3d
00000280: 00b0 0abe 87ff 7a3d a679 923d 0fcb 7d3c
00000290: c11d 0f3d e674 bebc 4959 b6bd 811c fc3d
000002a0: bd2b 253d b05e 123e 2e83 e93d ad84 c23d
000002b0: 8234 de3d 8b17 8bbd bb38 17bd 296f 263d
000002c0: cf94 243d 3b8e b3bd e7dc f63c 7605 823d
000002d0: 7a84 19bd e85b 59bd bad9 4bbd 41ae f83c
000002e0: 8023 92bc 768e e4bd a794 dbbb d57f 5c3d
000002f0: 734c 9abd 965a 083e 9ed9 94bc 749c 61bd
00000300: 970b 5fbc 301e 20be 8cb1 9a3d a939 f63a
00000310: c38e b9bd 7efb f1bc 5007 853b 30df 583d
00000320: 8b18 3bbd 8897 8f3d 7489 43bc 36c4 3f3d
00000330: 6c26 24be 1811 0b3c 2767 b3bc 52c4 363d
00000340: e33c 5a3d 7481 d3bc 20f6 ccbd fe9b ef3d
00000350: 19b9 b7bc d276 bdbd 593d 3a3c 8c2e 9a3d
00000360: 71f5 07bd 5d76 11bd f652 a83d 6803 5d3d
00000370: d08d 043e a5f5 37be 99e0 09bd a1b0 adbc
00000380: 55e8 d4bb f6d5 0dbc a773 633d e02d 3dbd
00000390: 139b 5f3c 2842 8cbc e683 3bbd 2faa 003d
000003a0: 29eb a8bd 9f11 00be 8c60 cbbc c7a2 1abd
000003b0: 54dc 1b3d 2972 cfbd aede 69bd 4bd0 dc3d
000003c0: c667 8dbd 77f7 793d 2c11 163e 8a12 b73c
000003d0: 441f 20bd fc85 8e3d 94a4 05be 14ec 803d
000003e0: bf47 12bd a48b 54be 72fe 973d a6d0 46bd
000003f0: ada6 14bd ea3d f2bd 7349 bdbc 32be acbc

network_body._body_endoder.seq_layers.2.bias f4 [256]
0.03850542 -0.018504264 0.0030575974 -0.0069598826 0.009150289 -0.0069736475 -0.000564868 -0.012200233
0.016785268 0.022202253 0.016205259 -0.0009068688 0.008911909 0.024002114 0.016513228 0.022055589
0.017074864 0.00145935 0.009985922 0.0011338124 0.01371071 -0.00071115483 0.02520676 0.01759689
-0.014315535 0.014055419 -0.009896639 0.008531093 0.011268278 -0.013893479 0.017520377 0.0018075095
0.018184965 -0.00029879654 0.0025811582 0.009595787 0.00095392764 0.016186872 0.0055433507 0.0047263973
0.022372302 0.0052073896 -0.0072542015 0.0017201945 -0.005301267 -0.01036502 0.0119334245 -0.00903645
0.0024848797 0.0116915675 -0.012264176 -0.0032432082 -0.019493567 0.013069918 0.0027553926 0.006518217
-0.01662868 0.01699884 0.016484698 0.008610107 0.0031641708 0.022307746 0.008894441 -0.0094189495
0.0087512145 0.016631834 0.029872824 0.023394134 0.010971442 0.026554978 0.008046019 0.025305504
0.0013106556 -0.0058706864 0.007650133 0.009503715 -0.0149055505 -0.004558442 0.019871986 0.009323882
0.029022865 0.018113952 0.0065222993 -0.016544426 -0.0016527069 -0.0019991114 0.0101630585 0.016320994
0.009185855 0.020963669 -0.014212618 -0.0073990272 -0.0029997712 0.0007466933 0.018722082 0.013347745
0.017067106 0.0079361675 0.020994615 0.029911775 0.019265654 0.010593256 0.017696358 -0.008963439
-0.011981991 0.003219591 0.007988944 -0.014513179 -0.0023712772 0.020711645 0.00068231 -0.0006029354
0.005656045 -0.0010868639 0.003863381 0.03938205 0.010639514 0.011383379 0.0035834082 0.020208353
0.0064230366 0.0059473403 0.020003844 -0.0042906227 -0.0053566187 0.00446427 0.01160508 0.016522076
0.0019888564 0.00010377783 0.027185922 -0.011415144 0.012606954 0.04664953 0.0012357145 0.011596862
0.00032103804 0.028366622 -0.008227349 0.0024432398 0.021583965 0.012480462 0.0037193855 -0.009411671
0.009639449 0.0066433325 -0.013975367 0.01173333 0.012869836 0.00594759 0.017431956 0.005096047
-0.0035268806 0.018896518 0.016711632 0.01903361 -0.0034251295 0.02456704 0.01629209 0.03909326
-0.012048545 0.005627095 0.016237402 0.029022766 0.0014903214 -0.0061495146 0.012164042 -0.01128514
0.008694447 0.01771837 0.017518038 -0.0012588606 0.014370652 0.018189678 0.0022343881 0.007983516
0.003814429 8.171407e-05 0.014142476 0.008832245 -0.00616769 0.009793332 0.005769243 0.032832112
-0.02276359 0.007046862 0.009484578 -0.0030740548 -0.004505094 0.01448587 0.012904809 -0.00885881
0.0116216745 0.010725122 0.0045540393 0.0062710256 -0.0063961945 0.00827099 -0.028299918 0.00247592
-0.0003661511 0.012220407 0.025204975 0.008156109 0.02028152 0.02273048 0.024840435 0.014277117
0.012074239 0.01628096 0.010325289 0.016861618 -0.03054961 0.009080588 -0.008289199 -6.217726e-05
0.014642971 0.0055058575 0.008936425 0.012000318 0.0162314 -0.010835691 0.008174466 0.022216404
-0.0021548853 0.02187097 -0.00658517 0.0085888505 0.007989952 -0.007946585 0.0046496587 0.022809848
0.0037923527 0.003764799 0.021851871 0.001493715 0.007694305 -0.0030880666 0.0005885862 0.010247902
0.008822067 -0.014547929 0.00047598165 0.015453104 0.021186808 0.02181146 -0.025534557 0.0127246985
0.01722664 0.012552407 0.002825544 0.01618127 0.0073358156 -0.008022542 -0.013577444 -0.0041600307
00000000: dcb7 1d3d 4196 97bc f961 483b ba0f e4bb
00000010: 18eb 153c 3283 e4bb a613 14ba 7ce3 47bc
00000020: 4281 893c 80e1 b53c e4c0 843c efba 6dba
00000030: 4103 123c 15a0 c43c c046 873c ecad b43c
00000040: 96e0 8b3c a947 bf3a fe9b 233c 6e9c 943a
00000050: e3a2 603c cb6c 3aba 687e ce3c 5a27 903c
00000060: b58b 6abc b348 663c 8325 22bc ffc5 0b3c
00000070: 959e 383c 79a1 63bc e586 8f3c f4e9 ec3a
00000080: a3f8 943c cba7 9cb9 a628 293b a637 1d3c
00000090: 0011 7a3a 559a 843c ffa4 b53b e5df 9a3b
000000a0: 1e46 b73c c0a2 aa3b a7b4 edbb 2678 e13a
000000b0: 40b6 adbb 0bd2 29bc 6984 433c 9e0d 14bc
000000c0: 5dd9 223b fd8d 3f3c afef 48bc 018c 54bb
000000d0: f9b0 9fbc 3623 563c d193 343b c496 d53b
000000e0: df38 88bc 2741 8b3c eb0a 873c 6811 0d3c
000000f0: fa5d 4f3b bcbe b63c fdb9 113c f051 1abc
00000100: 4161 0f3c 7c3f 883c dab7 f43c 0ea5 bf3c
00000110: 90c1 333c d389 d93c 73d3 033c 7d4d cf3c
00000120: 4eca ab3a e35e c0bb f8ad fa3b 78b5 1b3c
00000130: 6936 74bc fc5e 95bb 93ca a23c 32c3 183c
00000140: 5cc1 ed3c b663 943c 03b9 d53b 2d88 87bc
00000150: a49f d8ba 8603 03bb f582 263c 9bb3 853c
00000160: 4580 163c 00bc ab3c 0adc 68bc 8a73 f2bb
00000170: cf97 44bb bdbd 433a 0d5f 993c 80b0 5a3c
00000180: 51d0 8b3c b306 023c e6fc ab3c 8a09 f53c
00000190: 01d3 9d3c 568f 2d3c f4f7 903c 63db 12bc
000001a0: 1d50 44bc c6ff 523b 0fe4 023c afc8 6dbc
000001b0: 6e67 1bbb 78ab a93c 0ddd 323a 4f0e 1eba
000001c0: 5856 b93b 1a75 8eba c730 7d3b 134f 213d
000001d0: 5b51 2e3c 5a81 3a3c 9dd7 6a3b fd8b a53c
000001e0: 5678 d23b e8e1 c23b 1adf a33c 5a98 8cbb
000001f0: 9386 afbb 0349 923b 3c23 3e3c 4e59 873c
00000200: 7957 023b 4ca3 d938 03b5 de3c 9606 3bbc
00000210: 668d 4e3c 9413 3f3d b3f7 a13a c400 3e3c
00000220: ff50 a839 1e61 e83c 01cc 06bc c31e 203b
00000230: dbd0 b03c da7a 4c3c efc0 733b 6933 1abc
00000240: c8ee 1d3c 50b0 d93b f0f8 64bc 273d 403c
00000250: 01dc 523c 00e4 c23b 76cd 8e3c befc a63b
00000260: 3d23 67bb dfcc 9a3c d5e6 883c 60ec 9b3c
00000270: 2378 60bb d140 c93c fd76 853c 4120 203d
00000280: 4367 45bc 7e63 b83b 4d04 853c 27c1 ed3c
00000290: e356 c33a de81 c9bb b14b 473c 4fe5 38bc
000002a0: 2773 0e3c 1d26 913c fd81 8f3c 5a00 a5ba
000002b0: e272 6b3c 8502 953c d06e 123b 4bcd 023c
000002c0: 80fb 793b e85d ab38 d8b5 673c 1fb5 103c
000002d0: 551a cabb 3674 203c eb0b bd3b f77a 063d
000002e0: b57a babc 5de9 e63b 3465 1b3c 1576 49bb
000002f0: 789f 93bb 2456 6d3c b16e 533c 8b24 11bc
00000300: d668 3e3c 6cb8 2f3c 0d3a 953b 2d7d cd3b
00000310: 2b97 d1bb 0c83 073c 3bd5 e7bc 0b43 223b
00000320: f8f7 bfb9 1a38 483c aa7a ce3c 33a1 053c
00000330: 6e25 a63c 4635 ba3c 2b7e cb3c 92ea 693c
00000340: 07d3 453c a65f 853c 672b 293c 6021 8a3c
00000350: 2d43 fabc bfc6 143c 6ccf 07bc 2a65 82b8
00000360: 12e9 6f3c 7b6a b43b 156a 123c fb9c 443c
00000370: b7f7 843c 2f88 31bc 32ee 053c 2dff b53c
00000380: fa38 0dbb c02a b33c 69c8 d7bb 40b8 0c3c
00000390: 4ae8 023c 6532 02bc 2a5c 983b b8db ba3c
000003a0: 1f89 783b d9ba 763b b202 b33c c2c8 c33a
000003b0: 8220 fc3b 2961 4abb 5a4b 1a3a d1e6 273c
000003c0: 6e8a 103c 705a 6ebc 2d8d f939 042f 7d3c
000003d0: f58f ad3c f2ad b23c d92d d1bc 417b 503c
000003e0: e21e 8d3c 9ca8 4d3c c32c 393b 958e 843c
000003f0: 4861 f03b fb70 03bc ed73 5ebc de50 88bb

action_model._continuous_distribution.log_sigma f4 [1, 5]
-0.0032755025 -0.047577556 -0.05983941 0.07252484 -0.05414559
00000000: d0a9 56bb afe0 42bd 2b1a 75bd e787 943d
00000010: c4c7 5dbd

action_model._continuous_distribution.mu.weight f4 [5, 64]
0.010481359 -0.059847675 0.07494305 0.048115995 -0.049743265 -0.008879233 -0.14410533 0.011909566
0.22348188 -0.051752586 0.06019107 0.03592231 -0.08945381 0.23421773 -0.011765952 -0.077882335
-0.023188613 0.013832767 0.104697414 -0.09092325 0.006164011 -0.03275883 -0.100933 0.010378332
0.0029977118 0.002289775 0.0029626144 0.007910659 0.067077115 0.034660812 0.044084445 0.10104868
-0.14790457 -0.043062806 -0.009037153 -0.111423306 -0.027922291 0.06126266 -0.0011105958 0.0804572
0.031952817 0.02348887 0.016156789 0.010761878 -0.062462784 -0.121961355 0.049283937 0.05227991
0.050790574 -0.06729009 0.11108016 0.01399907 0.02792735 0.05587749 0.0131553775 -0.010251185
-0.04760914 0.022606326 -0.14875752 0.085421056 -0.0011170533 -0.028339993 -0.030352036 0.0845823
-0.029254429 0.0059510362 0.12803403 0.018487323 -0.036605705 0.037659492 -0.037957568 0.121967494
-0.14904419 0.010882593 -0.054329474 -0.005497877 0.070200175 0.0003517459 -0.057225887 -0.002701398
-0.048671618 -0.11290547 0.13377534 0.13068205 0.024759823 -0.0009553358 -0.13281704 0.1519267
-0.07245504 -0.07459752 -0.0039848224 0.054485463 0.025353618 0.08616092 0.12717845 -0.1450116
-0.1405944 -0.10487792 0.031065842 -0.0034740528 0.08008837 -0.054528147 -0.04564595 -0.065546215
0.102332085 -0.19635044 0.023985134 -0.024096688 -0.042815145 0.02671621 0.011013566 -0.01762654
0.050348762 -0.12292185 -0.11218871 -0.05294133 -0.010608267 0.046167832 -0.039721306 0.13065
-0.08789462 -0.07643403 -0.10658766 0.074728295 0.008268295 0.03085981 0.013521551 -0.12205739
-0.012928172 -0.059325658 0.072898895 -0.049414504 0.05787127 0.011532777 0.17844535 -0.041357975
0.08426752 0.024202583 0.004350235 0.0074502714 -0.032933664 -0.057286978 -0.14180085 0.02708843
-0.037380558 0.112021334 -0.013105693 -0.16901524 0.081166655 -0.08950466 0.015355475 -0.032998826
0.074121885 0.01347606 -0.042806316 -0.028619565 -0.107777864 0.01601769 0.17499407 -0.057067547
0.09723772 -0.0104112215 0.036559053 0.08956184 0.0626774 0.0031306928 0.006584428 0.01003417
0.01562163 0.039337803 -0.09969715 -0.055245265 -0.13613191 0.0036096957 -0.04241372 0.015669625
0.01765216 -0.115949534 -0.042652037 0.08902513 -0.020206016 -0.105610915 -0.033384625 -0.017146118
-0.073286206 -0.0030664133 -0.040011175 0.0135240555 -0.028846178 0.11930644 0.10760007 0.09097234
0.0018565906 -0.08246435 0.011446814 -0.06715336 -0.07447074 -0.05950947 0.04056879 -0.0017973502
-0.022193793 -0.101942666 -0.08401172 -0.07479055 -0.10933016 -0.017844772 0.040923808 0.0001292308
0.09346058 0.0454742 -0.016765138 -0.0066788592 -0.04632612 -0.014874027 -0.06308705 -0.034888837
0.054568708 0.034408435 -0.049694434 -0.0800901 0.03711094 -0.020963484 -0.02722936 -0.022905638
0.0066279387 -0.006214858 0.015433092 -0.00991359 -0.09270432 0.015505718 0.15179145 0.0067515355
0.05718395 0.042306524 -0.020984434 -0.027684273 -0.00950499 -0.041569367 0.0812341 0.016915215
0.06161933 0.027058387 0.018479778 0.004939772 0.0029457319 0.08051575 0.006662804 -0.08901566
-0.027239284 0.05456903 -0.009138706 -0.034239445 -0.048551545 0.07515446 -0.060053222 -0.023890905
00000000: 02ba 2b3c d622 75bd be7b 993d 4715 453d
00000010: 98bf 4bbd 347a 11bc 5990 13be 5720 433c
00000020: 6fd8 643e 85fa 53bd e98a 763d 4623 133d
00000030: 8f33 b7bd c6d6 6f3e fbc5 40bc c680 9fbd
00000040: 0cf6 bdbc d4a2 623c 996b d63d f835 babd
00000050: 79fb c93b 1f2e 06bd f6b5 cebd e109 2a3c
00000060: 4275 443b 0d10 163b 6c28 423b b59b 013c
00000070: ba5f 893d 7ff8 0d3d e491 343d 9cf2 ce3d
00000080: 4c74 17be a062 30bd 9110 14bc e731 e4bd
00000090: 4abd e4bc 8eee 7a3d 6991 91ba bfc6 a43d
000000a0: f5e0 023d bb6b c03c 3e5b 843c 9752 303c
000000b0: fad8 7fbd e0c6 f9bd f4dd 493d 7523 563d
000000c0: c709 503d 63cf 89bd ff7d e33d 5b5c 653c
000000d0: e6c7 e43c ccdf 643d a789 573c 96f4 27bc
000000e0: cd01 43bd e730 b93c e453 18be 3cf1 ae3d
000000f0: 176a 92ba 4629 e8bc d5a4 f8bc 7c39 ad3d
00000100: fca6 efbc e900 c33b 5a1b 033e ba72 973c
00000110: ddef 15bd d740 1a3d 6579 1bbd 18ca f93d
00000120: 0a9f 18be e74c 323c 9588 5ebd 8927 b4bb
00000130: 1cc5 8f3d 896a b839 b165 6abd f009 31bb
00000140: e45b 47bd fc3a e7bd 67fc 083e 84d1 053e
00000150: 1dd5 ca3c 806f 7aba 3101 08be ac92 1b3e
00000160: 4f63 94bd 96c6 98bd 1d93 82bb 262c 5f3d
00000170: 64b2 cf3c 2375 b03d 113b 023e ec7d 14be
00000180: faf7 0fbe 3cca d6bd cb7d fe3c efac 63bb
00000190: 5f05 a43d e858 5fbd 3ff7 3abd 183d 86bd
000001a0: 7c93 d13d 1710 49be 797c c43c 6b66 c5bc
000001b0: ef5e 2fbd f4db da3c 3e72 343c 8965 90bc
000001c0: 813a 4e3d 73be fbbd 32c3 e5bd 02d9 58bd
000001d0: 4cce 2dbc 7b1a 3d3d cfb2 22bd 1dc9 053e
000001e0: 1802 b4bd 7289 9cbd a24a dabd 260b 993d
000001f0: be77 073c b6cd fc3c 7f89 5d3c 3af9 f9bd
00000200: afd0 53bc 76ff 72bd 044c 953d dd66 4abd
00000210: 6d0a 6d3d f9f3 3c3c 61ba 363e fb66 29bd
00000220: 7394 ac3d 7f44 c63c 6b8c 8e3b 6821 f43b
00000230: 73e5 06bd c0a5 6abd 3e34 11be 8ee8 dd3c
00000240: 5b1c 19bd 716b e53d 43b9 56bc 5512 2dbe
00000250: b43a a63d 384e b7bd 8895 7b3c c729 07bd
00000260: 37cd 973d b1ca 5c3c ad55 2fbd 9473 eabc
00000270: a4ba dcbd 8837 833c a531 333e a9bf 69bd
00000280: 9224 c73d d493 2abc f2be 153d 336c b73d
00000290: 025d 803d 4f2c 4d3b 2fc2 d73b 5c66 243c
000002a0: ddf1 7f3c ad20 213d 052e ccbd dc48 62bd
000002b0: 2a66 0bbe a590 6c3b 02ba 2dbd 965d 803c
000002c0: 439b 903c f376 edbd e7b3 2ebd cf52 b63d
000002d0: 1687 a5bc 894a d8bd 51be 08bd 0476 8cbc
000002e0: 1417 96bd e1f5 48bb c2e2 23bd 0094 5d3c
000002f0: d24e ecbc ef56 f43d 6d5d dc3d b54f ba3d
00000300: d858 f33a 12e3 a8bd 6b8b 3b3c b387 89bd
00000310: 1e84 98bd 34c0 73bd 762b 263d 1195 ebba
00000320: c2cf b5bc 51c7 d0bd 560e acbd ca2b 99bd
00000330: 7ee8 dfbd 332f 92bc b99f 273d 2182 0739
00000340: 4368 bf3d 2843 3a3d 0b57 89bc 55da dabb
00000350: 75c0 3dbd 31b2 73bc c933 81bd 99e7 0ebd
00000360: 7083 5f3d dcef 0c3d 648c 4bbd 4706 a4bd
00000370: a401 183d 9dbb abbc 1b10 dfbc 9ba4 bbbc
00000380: 2e2f d93b 02a6 cbbb 14db 7c3c 9c6c 22bc
00000390: c3db bdbd b20b 7e3c 386f 1b3e fc3b dd3b
000003a0: b839 6a3d 9b49 2d3d 8ce7 abbc 21ca e2bc
000003b0: d1ba 1bbc a444 2abd 105e a63d c791 8a3c
000003c0: 8d64 7c3d 8da9 dd3c e762 973c d0dd a13b
000003d0: 2e0d 413b 71e5 a43d a753 da3b d84d b6bd
000003e0: eb24 dfbc c683 5f3d 83ba 15bc a93e 0cbd
000003f0: fcdd 46bd 95ea 993d 5efa 75bd dcb6 c3bc

action_model._continuous_distribution.mu.bias f4 [5]
0.009187056 -0.015952375 -0.0078073787 0.056750957 -0.0039817593
00000000: 4e85 163c 8eae 82bc 0ad5 ffbb b173 683d
00000010: 6b79 82bb

99 f4 [1, 256, 256]
0.038353812 0.05414967 0.03711083 -0.052024838 0.02094465 0.06542557 0.04296719 0.05391618
0.07199487 0.096706614 -0.06787667 -0.020639418 -0.12353052 -0.027963497 0.051487006 0.038825195
0.08001263 -0.08357936 -0.001752373 -0.106998615 0.021915482 0.04973451 0.06666699 -0.058339402
0.03750432 -0.037769858 -0.12562446 -0.038955458 -0.04995514 0.07392884 -0.029102525 -0.037828006
0.03278824 0.017720498 0.17304109 0.10101628 -0.011002352 -0.08579562 -0.083085686 -0.045464434
0.02142787 0.18098034 0.067397274 -0.0054426533 -0.13175437 -0.06347637 -0.036738753 -0.035638083
-0.11238834 0.14385945 0.025813049 0.06737867 0.068123415 -0.116306655 -0.008609783 0.058588453
0.013100855 0.015072381 0.18127483 0.024949038 -0.12444316 0.1459022 0.044781692 0.018244848
-0.041097846 0.07021348 0.044830523 -0.07739388 0.13090011 0.13198005 0.051881887 0.10016217
0.13675657 0.02556928 -0.08995012 -0.0900834 -0.13576378 0.00012538936 0.090540804 0.17281964
0.0854831 0.17415048 0.095726505 -0.16250683 0.05546914 0.07649482 0.03931052 0.06929071
-0.12003373 0.06413059 0.06718867 0.07392115 0.058787346 0.020472817 0.059700757 0.071620315
-0.04806364 -0.17656921 0.18824588 -0.04036472 0.028492728 -0.072929375 0.061559983 0.073270194
-0.17914894 0.07753924 0.06338807 -0.2054621 -0.115350544 -0.05584117 -0.18458003 0.1230733
-0.1239377 0.052598055 0.049192533 0.12334068 -0.05095112 -0.12628883 0.0669888 -0.08466701
-0.05031277 0.05972669 0.07203818 0.10611957 0.0045307134 -0.009122667 -0.060518168 0.005241016
-0.07254275 -0.13810994 0.05430036 -0.11816229 -0.12850328 -0.08145575 0.037514165 -0.13001423
-0.029270733 -0.02129503 -0.16746522 0.06305592 -0.07623251 -0.069073685 -0.08099162 -0.18411663
-0.048186906 -0.043941107 -0.065881856 -0.054530624 0.12863567 0.1008237 -0.09752394 -0.07770246
-0.023534806 -0.08765058 -0.0034494582 -0.05640187 -0.0790311 0.11258679 0.05724016 0.08226858
-0.0145119475 -0.06394782 0.16615365 0.019779699 -0.09503531 -0.0041704923 0.02000672 0.06351128
0.06707453 0.047238775 -0.0941788 -0.13426502 -0.093615934 0.10241773 0.062018108 -0.094155766
-0.018968944 0.043080196 -0.19260363 -0.030431647 0.04543457 0.10760215 -0.050542466 0.09811359
-0.0077112094 0.07023882 -0.031764787 0.083340034 0.08483249 0.10592181 -0.09463056 -0.10027242
0.14668182 0.14382024 0.13222532 -0.15332036 -0.041993964 0.03989017 -0.04628932 -0.0056679724
0.020636383 0.04525926 -0.06563053 -0.0022751305 0.13261652 0.11114507 0.061891437 -0.042984005
0.11812565 0.10970124 0.09861691 0.123092085 -0.12336912 -0.039914865 -0.111565195 0.036753718
-0.06225887 0.16306046 -0.062325563 -0.033813 0.11705246 -0.09525151 -0.05128782 -0.06781873
0.050842796 0.14237948 0.052940983 0.045428712 0.060164817 -0.01108764 -0.025843428 -0.023531456
0.09689001 -0.04672863 -0.045831025 -0.10752216 0.16606766 0.082689196 0.0072697974 -0.100841545
0.03820661 -0.09998126 0.17495066 -0.046605326 -0.07050902 0.091036 -0.0177401 0.1388165
0.16948482 0.036846116 0.079069905 0.02014172 0.16638474 0.041301418 0.11858824 0.078020744
00000000: e318 1d3d 0bcc 5d3d 8701 183d ff17 55bd
00000010: 1d94 ab3c d7fd 853d 5dfe 2f3d 36d7 5c3d
00000020: 0c72 933d 1e0e c63d ec02 8bbd ff13 a9bc
00000030: 92fd fcbd b413 e5bc 0ae4 523d 2b07 1f3d
00000040: a9dd a33d a82b abbd e1af e5ba 1722 dbbd
00000050: 1988 b33c 6ab6 4b3d b488 883d 4cf5 6ebd
00000060: 219e 193d 91b4 1abd b3a3 00be c28f 1fbd
00000070: c39d 4cbd 0168 973d 6b68 eebc 8af1 1abd
00000080: f64c 063d 942a 913c af31 313e a0e1 ce3d
00000090: 3643 34bc 9db5 afbd d428 aabd ea38 3abd
000000a0: 8089 af3c e952 393e 9507 8a3d 4958 b2bb
000000b0: 9eea 06be e6ff 81bd 607b 16bd 3df9 11bd
000000c0: dc2b e6bd e44f 133e e375 d33c d4fd 893d
000000d0: 4a84 8b3d 2f32 eebd 0c10 0dbc 72fa 6f3d
000000e0: f8a4 563c 26f2 763c 1ca0 393e ed61 cc3c
000000f0: 0edc febd 6367 153e 026d 373d 3876 953c
00000100: 3756 28bd 16cc 8f3d 36a0 373d af80 9ebd
00000110: ae0a 063e c725 073e 1a82 543d d321 cd3d
00000120: ea09 0c3e ab76 d13c c537 b8bd a57d b8bd
00000130: a905 0bbe f37a 0339 756d b93d a2f7 303e
00000140: c311 af3d 8154 323e 420c c43d 3168 26be
00000150: 9c33 633d 51a9 9c3d 1104 213d 4ae8 8d3d
00000160: 3fd4 f5bd e656 833d 379a 893d f963 973d
00000170: 00cb 703d 9cb6 a73c c888 743d acad 923d
00000180: 61de 44bd 8fce 34be 87c3 403e 7a55 25bd
00000190: 9569 e93c ff5b 95bd 5226 7c3d af0e 963d
000001a0: d272 37be e5cc 9e3d 9bd1 813d a864 52be
000001b0: e83c ecbd b6b9 64bd 8c02 3dbe db0d fc3d
000001c0: 0dd3 fdbd 0f71 573d 1c7e 493d 0a9a fc3d
000001d0: 1fb2 50bd dc51 01be 6d31 893d e665 adbd
000001e0: c314 4ebd f9a3 743d c188 933d 3855 d93d
000001f0: 6176 943b 3d77 15bc e6e1 77bd d4bc ab3b
00000200: 4b91 94bd b16c 0dbe 0e6a 5e3d 12ff f1bd
00000210: 5d96 03be 46d2 a6bd 74a8 193d 7322 05be
00000220: 2dc9 efbc ea72 aebc 017c 2bbe 7623 813d
00000230: ca1f 9cbd 8176 8dbd efde a5bd 1289 3cbe
00000240: a25f 45bd 97fb 33bd 11ed 86bd 815b 5fbd
00000250: 12b9 033e a87c ce3d a2ba c7bd 7822 9fbd
00000260: 11cc c0bc 2682 b3bd 4e10 62bb a605 67bd
00000270: 0fdb a1bd e793 e63d a874 6a3d 6e7c a83d
00000280: 85c3 6dbc 13f7 82bd 2f24 2a3e 0909 a23c
00000290: dfa1 c2bd a0a8 88bb 22e5 a33c 3412 823d
000002a0: 5f5e 893d 727d 413d d1e0 c0bd c57c 09be
000002b0: b6b9 bfbd 63c0 d13d b306 7e3d bdd4 c0bd
000002c0: c264 9bbc dc74 303d e339 45be ca4b f9bc
000002d0: 9a19 3a3d 845e dc3d 9e05 4fbd c7ef c83d
000002e0: 50ae fcbb 5fd9 8f3d cb1b 02bd 2eae aa3d
000002f0: a8bc ad3d 89ed d83d abcd c1bd a05b cdbd
00000300: c233 163e 9d45 133e 1366 073e 0300 1dbe
00000310: dd01 2cbd e063 233d df99 3dbd 66ba b9bb
00000320: a20d a93c c661 393d 4d69 86bd 5b1a 15bb
00000330: a0cc 073e 07a0 e33d e081 7d3d ff0f 30bd
00000340: dceb f13d 0bab e03d aaf7 c93d b417 fc3d
00000350: f3a8 fcbd c57d 23bd 4b7c e4bd 118b 163d
00000360: 2803 7fbd 52f9 263e 1749 7fbd 807f 0abd
00000370: 33b9 ef3d 3913 c3bd 2d13 52bd 8ce4 8abd
00000380: 8940 503d edcb 113e a5d8 583d 7513 3a3d
00000390: 626f 763d efa8 35bc 99b5 d3bc 0ac5 c0bc
000003a0: 456e c63d 8566 3fbd 50b9 3bbd 9434 dcbd
000003b0: a40d 2a3e f458 a93d 7b37 ee3b 0386 cebd
000003c0: 897e 1c3d fac2 ccbd 4426 333e 3ae5 3ebd
000003d0: 0867 90bd 1571 ba3d b053 91bc ea25 0e3e
000003e0: 6e8d 2d3e f4eb 163d 67ef a13d 4000 a53c
000003f0: c360 2a3e ad2b 293d 64de f23d 57c9 9f3d

100 f4 [1, 256, 64]
-0.018963635 -0.16038734 -0.04965426 0.12110475 -0.1741728 -0.15576003 -0.06197047 0.12633334
0.12726869 -0.17573261 0.02355353 0.0151394615 -0.124146655 0.092364766 -0.009353673 -0.14252457
-0.018755192 0.14495541 0.18743135 -0.048598964 -0.050479166 0.11142907 0.15316193 -0.02926152
0.019240417 0.090523995 0.14937563 0.050963536 0.17155443 0.1570868 0.050534047 -0.21958971
-0.016871002 -0.090770714 -0.04658169 0.2354603 0.14247032 -0.20811266 -0.0010134289 -0.16738738
0.07172528 -0.11074866 -0.13804057 -0.10768267 0.051745597 0.026833495 0.06327776 -0.100794934
0.121022455 0.1850876 0.16842213 -0.12123002 -0.05463965 0.03536831 -0.14524037 -0.050748866
0.04661117 -0.12554576 -0.22464606 -0.05617335 0.089303695 0.088953145 0.18776599 0.21830542
0.038526796 -0.1588987 0.17077604 -0.024322893 0.08632969 0.09514754 -0.16740891 0.053342685
0.085158385 -0.005032058 0.06673146 -0.14273755 -0.089991175 0.21376352 0.19146974 0.056413982
0.024963574 0.053070057 0.1524929 0.101218015 -0.17919852 0.010937859 0.16628355 0.08135477
0.19400728 -0.022729253 0.09893972 -0.20633939 -0.15582158 -0.024104718 0.10905389 -0.19548388
-0.031431854 -0.045415033 -0.15345718 -0.04587809 -0.23421295 -0.1525505 0.20667134 -0.06539403
0.16521633 -0.045526307 -0.04758824 -0.09706924 0.040933456 0.08046044 -0.18703361 0.16684742
-0.1014394 0.04559195 0.063047566 0.17039898 -0.20933288 -0.043209136 -0.06117394 0.027398512
-0.1078919 0.1387032 0.20342171 0.07649112 0.2284323 -0.07684208 -0.20481455 0.038333807
-0.15182339 0.14159046 -0.030106965 -0.09143774 0.08406733 0.14817433 -0.034151487 0.031648908
0.19639154 -0.17797542 0.085800886 0.08496675 -0.19727953 0.014451254 -0.21237202 0.051568888
-0.14119063 -0.123857036 -0.1085525 0.16214356 0.11637323 -0.14752916 -0.010915963 -0.20101179
-0.107022695 0.045794934 -0.20014432 0.037537284 0.06393512 -0.12738922 0.15290983 0.050993122
-0.07683573 -0.19055305 -0.18057817 -0.0004633383 -0.114211425 -0.01984474 -0.023095695 -0.10196616
-0.11626353 -0.043567784 -0.19737004 -0.032728452 -0.18948962 0.09550765 0.07982311 -0.039464835
0.14423162 0.16242012 0.19869305 0.055043846 -0.15771218 -0.08207896 0.11060539 -0.15612541
0.030209722 0.233414 0.059026774 0.026417335 -0.016784228 -0.05345388 -0.010705425 -0.09516574
0.19250444 -0.1745321 -0.16828932 0.045282762 -0.14147645 -0.039403416 0.14454941 0.21671957
0.023471782 -0.0347132 -0.070318185 0.1702251 -0.0829082 -0.21176463 0.04077813 0.1114652
0.21173868 -0.018305438 -0.029806675 0.13078412 0.08684055 0.0886181 0.16266252 -0.14179547
0.068961166 -0.124337554 -0.16102968 0.0071612834 -0.02777233 -0.1483912 0.070930324 -0.053706042
-0.06602281 0.005390432 0.1820673 0.20441292 0.20124009 0.077894814 0.105690174 -0.11635348
-0.015579922 0.15096442 0.025106108 -0.20742473 -0.16392812 -0.071171455 0.0071932836 -0.0047873636
-0.09766858 -0.012743016 0.12833948 -0.07438394 0.21903361 0.059026986 0.09082145 0.047766168
0.14019616 -0.11080404 -0.08963606 -0.026696514 -0.05598365 -0.16107845 -0.09874761 -0.06776396
00000000: a059 9bbc 943c 24be 4462 4bbd c405 f83d
00000010: 5b5a 32be 8f7f 1fbe bfd4 7dbd 875d 013e
00000020: b952 023e 40f3 33be 55f3 c03c 810b 783c
00000030: 9a40 febd bd29 bd3d 2640 19bc f6f1 11be
00000040: 7da4 99bc 316f 143e 01ee 3f3e b50f 47bd
00000050: 3ec3 4ebd ed34 e43d 7bd6 1c3e dbb5 efbc
00000060: 149e 9d3c a564 b93d edf5 183e 24bf 503d
00000070: f7ab 2f3e 5ddb 203e cafc 4e3d 20dc 60be
00000080: 0e35 8abc ffe5 b9bd 71cc 3ebd 811c 713e
00000090: bde3 113e 7c1b 55be 08d5 84ba 9967 2bbe
000000a0: b4e4 923d 32d0 e2bd 825a 0dbe bb88 dcbd
000000b0: 31f3 533d ebd1 db3c c597 813d 936d cebd
000000c0: 9fda f73d 9b87 3d3e da76 2c3e 7247 f8bd
000000d0: d3cd 5fbd 5cde 103d e4b9 14be 0bde 4fbd
000000e0: 5beb 3e3d 118f 00be 9e09 66be 0716 66bd
000000f0: dbe4 b63d 112d b63d ba45 403e 758b 5f3e
00000100: 46ce 1d3d 57b6 22be eadf 2e3e ce40 c7bc
00000110: 9fcd b03d b7dc c23d 3e6d 2bbe dc7d 5a3d
00000120: 8567 ae3d f6e3 a4bb 81aa 883d cb29 12be
00000130: 4b4d b8bd d3e4 5a3e a510 443e 5912 673d
00000140: 6980 cc3c fd5f 593d 1927 1c3e 644b cf3d
00000150: d17f 37be b534 333c 3c46 2a3e 549d a63d
00000160: d8a9 463e b332 babc e8a0 ca3d a24a 53be
00000170: b18f 1fbe 4277 c5bc a557 df3d ed2c 48be
00000180: b0be 00bd 1d05 3abd e123 1dbe aaea 3bbd
00000190: 85d5 6fbe 3336 1cbe a7a1 533e 4eed 85bd
000001a0: 782e 293e cb79 3abd e3eb 42bd 3dcc c6bd
000001b0: d7a9 273d 71c8 a43d bd85 3fbe 0dda 2a3e
000001c0: 76bf cfbd a0be 3a3d 151f 813d 127d 2e3e
000001d0: 5c5b 56be 10fc 30bd 8691 7abd d872 e03c
000001e0: 6ef6 dcbd 3608 0e3e c84d 503e 60a7 9c3d
000001f0: 28ea 693e 615f 9dbd e8ba 51be e903 1d3d
00000200: 9777 1bbe 17fd 103e e2a2 f6bc b643 bbbd
00000210: 7e2b ac3d 03bb 173e 6ee2 0bbd 49a2 013d
00000220: dd1a 493e 303f 36be 60b8 af3d 0c03 ae3d
00000230: a503 4abe f4c4 6c3c 0d78 59be e639 533d
00000240: 4794 10be c2a8 fdbd c650 debd f608 263e
00000250: 1755 ee3d e211 17be ded8 32bc 09d6 4dbe
00000260: b72e dbbd 7893 3b3d a2f2 4cbe b2c0 193d
00000270: 6bf0 823d 5272 02be 6594 1c3e 2ade 503d
00000280: 0d5c 9dbd 5720 43be 7ce9 38be 37ec f2b9
00000290: aee7 e9bd 7091 a2bc 2f33 bdbc a2d3 d0bd
000002a0: 931b eebd 2274 32bd 5f1b 4abe 450e 06bd
000002b0: 9109 42be 8499 c33d 4c7a a33d e1a5 21bd
000002c0: 74b1 133e 7651 263e 3176 4b3e a875 613d
000002d0: 4d7f 21be 0419 a8bd 1485 e23d 57df 1fbe
000002e0: 617a f73c 1404 6f3e 0fc6 713d 2b69 d83c
000002f0: 147f 89bc 75f2 5abd cf65 2fbc 41e6 c2bd
00000300: e21f 453e 8bb8 32be 0954 2cbe 6b7a 393d
00000310: 34df 10be 7a65 21bd c304 143e bceb 5d3e
00000320: e547 c03c 6e2f 0ebd fb02 90bd 7d4f 2e3e
00000330: c6cb a9bd d4d8 58be f806 273d de47 e43d
00000340: 06d2 583e 49f5 95bc 212d f4bc 46ec 053e
00000350: 75d9 b13d 687d b53d 0191 263e d532 11be
00000360: 833b 8d3d b0a4 febd f7e4 24be 33a9 ea3b
00000370: cc82 e3bc ddf3 17be eb43 913d defa 5bbd
00000380: f836 87bd 39a2 b03b da6f 3a3e 9f51 513e
00000390: e211 4e3e 5187 9f3d 1774 d83d bc4a eebd
000003a0: ee42 7fbc 6b96 1a3e 53ab cd3c 2667 54be
000003b0: c6dc 27be 57c2 91bd a3b5 eb3b 51df 9cbb
000003c0: 7706 c8bd 15c8 50bc 6d6b 033e 9b56 98bd
000003d0: 594a 603e 48c6 713d 9900 ba3d 75a6 433d
000003e0: 958f 0f3e 3bed e2bd 1c93 b7bd a6b2 dabc
000003f0: 1d4f 65bd c0f1 24be 303c cabd d5c7 8abd
