ml_agents/Hummingbird.onnx (onnx, 645331 bytes, 10 tensors)

network_body._body_endoder.seq_layers.0.weight f4 [256, 46]
000000 86 af 5e 3d 0a 01 ae bc 30 75 56 3e fd f8 be 3e
       0.05436661 -0.02124073 0.20943141 0.37299338
000010 5c f7 59 bd 5f 9a 42 be 0f 26 b1 3e 89 9b 69 bd
       -0.053214416 -0.190042 0.3459935 -0.057033096
000020 68 02 fd bd 89 6e f8 bd 4c 79 aa 3d 37 68 71 3e
       -0.123539746 -0.12130458 0.08323917 0.23574911
000030 0d ca e2 3d c4 a7 8c 3d 25 ff 0c be 7c bc 6e 3d
       0.110736944 0.06867936 -0.13769205 0.05828522
000040 27 e4 95 3d 2d b2 00 bf 90 7c 23 be a9 ed 4a 3e
       0.07318907 -0.50271875 -0.15965486 0.19817223
000050 a6 9c 37 3d 86 75 d8 bd 43 e5 aa 3d 2f 1c 50 be
       0.044827126 -0.10569291 0.083445095 -0.20323251
000060 f4 4e 22 3e da f5 58 3e 96 87 0c 3d e9 fc 9a 3d
       0.1585043 0.21187535 0.034308992 0.0756777
000070 28 d6 b8 bd f2 c2 9f 3d 40 37 b7 bd de f3 2c 3d
       -0.09025222 0.07800855 -0.08946085 0.042224757
000080 48 1a 8b bc 59 21 62 bd 47 2f cf 3d 36 48 97 bd
       -0.016980305 -0.055207584 0.10116439 -0.0738682
000090 66 c5 20 3e 0f 67 e4 bd b6 1e ac 3d 06 04 35 3e
       0.15700302 -0.11152469 0.08404295 0.17677316
0000a0 89 3e b1 bd 2f 39 91 bd 6f 0f 41 3e c0 ac 4f ba
       -0.08654506 -0.07090985 0.18853544 -0.0007922165
0000b0 3a 9a 5d be 58 44 a7 bc b6 00 15 be e2 77 44 bc
       -0.21640864 -0.020418331 -0.14551052 -0.011991473
0000c0 20 6b 77 bd 43 4c 85 be c4 d1 76 3d 16 2b 99 bc
       -0.060404897 -0.26034746 0.06025864 -0.018697303
0000d0 68 08 b0 bd 92 2c 26 3e a7 1c 9e bd a6 10 0e 3e
       -0.08595353 0.1622794 -0.07720309 0.13873538
0000e0 ec ad 16 3e fc fe e1 bd 25 a8 3f 3d 98 86 3e be
       0.14714783 -0.110349625 0.046791214 -0.18606031
0000f0 70 87 91 3d fe c2 32 3d 73 61 48 be 53 13 f6 3c
       0.07105911 0.04364299 -0.19568424 0.030038511
000100 80 00 b6 bd bd 73 67 3c d2 5d d9 bd 42 91 67 3e
       -0.08886814 0.014126715 -0.10613598 0.22614005
000110 68 6d 8f bd 3d 10 a0 3e 95 f1 07 3e 5a a5 67 be
       -0.070032895 0.3126239 0.1327575 -0.2262167
000120 9e 87 f3 3d 41 41 79 bd 53 30 3a be 11 d7 f8 bd
       0.11891101 -0.060853247 -0.18182497 -0.12150396
000130 df bf 1d 3d a4 50 04 3e bb f9 17 3d a9 56 48 bc
       0.03851306 0.12921387 0.037103396 -0.012227693
000140 9f 08 d5 bc f6 04 e9 bb 35 18 1e 3d 95 19 d8 3e
       -0.026005087 -0.007111187 0.038597304 0.42207018
000150 a5 e8 b1 bc f8 c8 46 be d4 77 89 bd 55 64 84 bd
       -0.021717379 -0.19412601 -0.067123085 -0.06464449
000160 0f 6d 9b 3d 44 de bd bc 66 1a f4 3d 65 18 6a bc
       0.07589161 -0.023177274 0.119190976 -0.014288043
000170 dc eb 5d 3c 94 58 3f be 4b 0a b7 bb b5 55 28 be
       0.013545003 -0.18686134 -0.005585944 -0.16438945
000180 f2 63 11 be 35 5e 68 bc 36 ad c5 3c 49 ce 52 be
       -0.14198282 -0.014182617 0.024130445 -0.20586504
000190 bf 13 41 be b7 e1 a1 bd 22 10 d8 bd a2 a1 68 3e
       -0.18855189 -0.0790438 -0.10549952 0.22717908
0001a0 ac ef a7 3d 8f e5 14 bd ea 0d e5 bd 91 fa 24 3e
       0.08200011 -0.036351737 -0.111842945 0.16111208
0001b0 64 c4 ea 3c 69 df d4 bd 54 c6 fd 3d cc 5e b4 bd
       0.0286581 -0.103941746 0.12391344 -0.088071436
0001c0 c6 84 0f 3e 46 b0 66 3c b1 1d 77 be b2 9a ee bc
       0.14015493 0.014080113 -0.2413242 -0.029126499
0001d0 cc eb 93 bd 4f 32 09 be 35 97 15 3e 35 df b0 be
       -0.07222709 -0.13398097 0.14608462 -0.34545293
0001e0 39 ac 4c bd fe 0e b0 3d fe 27 54 bd 04 9e 68 3d
       -0.04996893 0.085966095 -0.051795952 0.05679132
0001f0 64 fe 08 be 6b e6 74 3e 70 a7 68 bd d7 ad fc 37
       -0.13378292 0.23916022 -0.056800306 3.0121691e-05
000200 e2 4d 82 bd 6e 7a d0 3d e7 14 33 3c 25 68 3a 3e
       -0.06362511 0.101796016 0.0109302765 0.1820379
000210 be 64 c3 3d b5 6d 4c be 22 fd 40 3e 4d 72 22 bd
       0.095406994 -0.19963725 0.18846563 -0.039659787
000220 eb 07 10 be 52 0c 08 be 11 14 eb bd fc e6 21 be
       -0.1406552 -0.1328595 -0.11478437 -0.1581077
000230 72 bb ed 3c 2f 1f d9 3c d8 51 a0 3e 61 1e 0b be
       0.029020045 0.026504127 0.31312442 -0.13585807
000240 10 0e f1 3d 8a eb ba 3d fa 88 cd 3d 3a d3 2e 3e
       0.1177026 0.09126957 0.10035892 0.17072764
000250 8b 82 1a 3e a9 09 34 be 44 ec 2a be b1 06 ae 3c
       0.1508886 -0.1758181 -0.1669169 0.021243425
000260 cb df 53 3e 9e a0 94 be 57 0a 99 3d 7a 8b c1 3c
       0.20690839 -0.2902879 0.07472675 0.023626078
000270 a6 05 ad be d4 30 07 be a5 e4 85 bd cd 5d 8a bd
       -0.33793372 -0.1320222 -0.06537751 -0.06756172
000280 77 90 ad bc 0d 42 92 be f7 81 5b 3d a5 49 19 be
       -0.02118705 -0.28566018 0.05359074 -0.149695
000290 41 fc 13 3e 4e 17 5b 3d c0 5e aa 3b ac fe de 3e
       0.14451696 0.053489022 0.0051992834 0.43553674
0002a0 00 38 99 bd 11 94 d8 bd 05 8f a3 bd f2 26 98 bd
       -0.07481384 -0.105751164 -0.07986263 -0.07429303
0002b0 19 2c 89 be 40 23 7d 3e b5 4a cb be 54 b3 35 bc
       -0.26791456 0.24720478 -0.39705434 -0.011090118
0002c0 86 b0 d1 bd 8e e1 d9 3d d1 4a 0b 3d fb 12 84 3e
       -0.10238747 0.10638724 0.034006897 0.2579573
0002d0 c1 4b 46 bc c2 b7 b3 bd 7e b6 e5 3d 9e e7 cc bd
       -0.012103022 -0.087752834 0.11216448 -0.10005115
0002e0 10 3b 23 3e 37 3f 80 be 53 1b 64 bd 8a bf 26 3e
       0.159405 -0.2504823 -0.05569012 0.16284004
0002f0 39 28 fa 3c 0d 4c a5 3d b5 44 58 bd 1b 8e d5 3d
       0.030536758 0.08071146 -0.0527999 0.10427495
000300 a2 6a 03 3e 5b 73 02 bc 1c 5a 75 3d 5e 04 bf 3c
       0.12833646 -0.007962073 0.059900388 0.023317512
000310 b4 99 3c bd 01 5d 7e bd a1 80 22 3e 1f 34 1a 3c
       -0.04604502 -0.062100414 0.1586938 0.009411841
000320 de f6 d9 bc 74 14 28 be b7 1a 88 bd be 9a 03 be
       -0.026606973 -0.16414052 -0.066457205 -0.12851998
000330 97 99 5d 3e 70 0a ab 3d c2 a7 7b bd 3e 1b 83 3d
       0.21640621 0.083516 -0.061439283 0.064016804
000340 e5 41 82 be 74 35 27 be df b4 e8 3d f8 b0 1d be
       -0.254409 -0.16328984 0.113626234 -0.1539954
000350 90 7f b7 be e9 bf 95 bd c2 85 d0 3c a0 e2 9c 3d
       -0.3583951 -0.073119946 0.025454406 0.07660413
000360 d5 91 e9 bd 10 a4 28 bd b0 df be 3e ec 19 43 3e
       -0.114047684 -0.041172087 0.37280035 0.19052857
000370 b4 bf 81 3e b0 82 d1 3d 5c b8 66 bc 3c c1 44 be
       0.2534157 0.10230005 -0.014082041 -0.19214338
000380 12 ec a4 3d db 36 42 3e b1 17 bc 3d 3a 94 4e 3c
       0.08052839 0.18966238 0.09184206 0.012608582
000390 d3 55 28 3c 4b 27 8e be b3 a6 10 be b3 83 55 3e
       0.010274368 -0.27764353 -0.1412609 0.2085102
0003a0 33 6f 12 3d 64 62 6e 3d 95 b7 8f 3d df 09 a0 bd
       0.03575058 0.0581993 0.07017437 -0.07814383
0003b0 d2 e6 fc bd 55 91 31 be c3 83 11 be 11 c3 23 3d
       -0.12348713 -0.17340596 -0.1421042 0.03998095
0003c0 0b 05 79 be c0 44 d8 3c b0 0d b9 bb 03 ee 3f 3d
       -0.2431833 0.02639997 -0.0056473836 0.046857845
0003d0 26 e3 41 3e 2d 73 8d 3d 82 66 04 3e e4 26 2f bb
       0.18934307 0.06906734 0.12929729 -0.0026726061
0003e0 bc 35 bb 3d b5 05 a2 3c 81 04 23 3d 53 e2 0d be
       0.091411084 0.019778112 0.039799217 -0.13855867
0003f0 b2 9b 6b 3e a4 d2 26 3b 38 71 14 3d e7 4f 39 3d
       0.23008612 0.0025455141 0.036240786 0.045242216

network_body._body_endoder.seq_layers.0.bias f4 [256]
000000 78 0e 93 3c 45 b9 5c 3c 32 33 33 bc 37 54 f0 3b
       0.017951235 0.013471906 -0.010937499 0.007334258
000010 b2 1c 43 bb 74 b8 d1 ba b3 d2 14 ba fb e3 13 3c
       -0.0029771742 -0.0016000406 -0.00056771486 0.009026523
000020 b8 b5 26 3b 8c cc b8 3c b6 33 65 bb d9 17 b2 3c
       0.0025437903 0.022558473 -0.003497345 0.021739887
000030 25 bc 5c ba e1 97 1d bb 42 fd 63 3c cc 84 bb bb
       -0.00084203697 -0.0024046826 0.013915362 -0.0057226177
000040 d0 7f 1d 3c e8 76 64 bc dd e2 6d ba ec b2 03 bb
       0.009612992 -0.013944365 -0.0009074638 -0.002009566
000050 08 ac 3a bb 53 25 29 3c fc 23 b3 bb 8f 47 ed bb
       -0.0028483886 0.01032384 -0.005466936 -0.0072411965
000060 6d 3f df 3b b1 49 52 bc e8 4a 12 3c f2 ba 56 3c
       0.006812981 -0.012834952 0.008928992 0.013106095
000070 11 3e 56 3b de 87 08 bc 66 30 d5 39 73 00 1e 3c
       0.0032690803 -0.0083331745 0.00040662586 0.009643662
000080 45 02 7b bb 54 b2 40 3c f3 d4 1d bb 45 56 8a bc
       -0.0038300913 0.011761267 -0.0024083226 -0.01688684
000090 a6 d8 43 bc 77 bf d8 3b c1 5c 45 3b f8 fd 2f ba
       -0.0119535085 0.0066146213 0.00301151 -0.00067135645
0000a0 3d 66 10 3c c9 a2 94 ba 83 d6 06 3c e2 e1 c0 3b
       0.008813438 -0.0011340018 0.0082298545 0.0058863023
0000b0 b1 ae 8f 3b 35 e2 42 3c 26 0b c5 3b f9 c1 54 bb
       0.0043848385 0.011894752 0.006013292 -0.003246425
0000c0 7f 8e 8c bb 85 f9 6e 3c 47 36 1b 3c 29 84 63 3c
       -0.004289448 0.014585857 0.00947339 0.01388649
0000d0 92 6f c0 bb 95 f7 81 3c 4d fd d4 bb bc 07 a1 3b
       -0.005872675 0.015865127 -0.0064999224 0.004914252
0000e0 c6 3f 60 ba e0 dc 6b bb 91 33 89 3b c1 61 ea bb
       -0.0008554425 -0.0035989806 0.0041870554 -0.0071527665
0000f0 da d8 d2 3b e5 f7 72 ba 16 2e c8 3b e2 f4 78 3c
       0.006434542 -0.00092685065 0.0061090095 0.015195103
000100 c6 d9 c7 3a 25 2e 8b 3c 9b 5d 01 bc ba 8b aa bb
       0.0015247397 0.016989777 -0.007895852 -0.005204645
000110 64 d0 70 bb 2c 9e 28 3c 1c e3 ed 3b 98 35 a4 3b
       -0.0036745304 0.010291617 0.0072597396 0.0050112717
000120 5c ae 88 3a 5e 8d 8b 3c 47 93 29 bc cb 7f b6 bb
       0.001042794 0.017035183 -0.010350055 -0.0055694333
000130 0d fb c1 3b 42 10 eb bb 98 03 5f 3c 16 4e ac 3b
       0.00591982 -0.007173569 0.013611697 0.005258332
000140 40 4b 97 ba 59 70 e0 bb 59 9d 89 3b e1 28 0d bc
       -0.0011542812 -0.0068493304 0.0041996655 -0.008615703
000150 8c 06 7f bc a5 4a fa 3b da bc 88 bb cf 5d f6 b9
       -0.015565526 0.007638293 -0.0041729035 -0.0004699067
000160 c3 d4 1c 3c 2f 09 f6 3b 36 57 77 3b bb 8a 7a 3c
       0.009572211 0.007508419 0.003774119 0.015291865
000170 fd 14 10 3c 3b 8d a4 39 e4 de 8d bb 2d a6 2f 3c
       0.0087940665 0.00031385742 -0.004329549 0.010720772
000180 a2 6a 2b 3c e4 52 50 3b 95 a5 aa bb 17 03 0f 3c
       0.010462435 0.0031787688 -0.005207727 0.008728764
000190 bf 61 e5 3a 91 a2 c3 3b 38 fd 1a 3a ea bf f0 3b
       0.0017500444 0.005970307 0.00059123663 0.0073470967
0001a0 e2 a2 73 3c e9 6b d2 3a 30 35 e6 3b 08 1b 47 3b
       0.014870377 0.0016053888 0.0070253834 0.0030381102
0001b0 a3 43 35 bc fa 32 a1 3b 65 85 1e bc f9 fa c4 bb
       -0.011063489 0.004919407 -0.009675358 -0.0060113636
0001c0 f5 6a 85 bb be b0 c4 bb 4e a6 1f 3c 2e ff 95 bb
       -0.004071588 -0.0060025146 0.00974424 -0.004577539
0001d0 b2 89 ba b9 2b de 33 bc 4e c6 59 bc 27 d1 04 3c
       -0.00035579276 -0.010978262 -0.013291908 0.008106506
0001e0 8b b3 87 3c 54 91 c8 3b 57 20 25 3c 2a 15 3a 3c
       0.016565105 0.00612084 0.010078511 0.011357585
0001f0 69 67 d6 3b 03 70 bc 3b 29 05 c3 3b 59 2a b6 3b
       0.006543089 0.0057506575 0.005951543 0.0055592475
000200 23 61 12 3c 57 a0 95 3b 6e 93 e3 bb 3f 0b 1a 3a
       0.008934292 0.004566233 -0.006945065 0.00058763096
000210 93 74 40 bc 4d 2b bd 3b 67 a0 86 3c cd 3a 81 3b
       -0.011746543 0.005772984 0.016433908 0.003943777
000220 06 e9 b0 3b be da 82 bb ba 22 ad 3a fc 82 0a b9
       0.0053988723 -0.0039933613 0.0013209202 -0.00013209501
000230 27 f4 8e bb 61 f5 95 3b 36 81 45 bb 82 f4 24 3c
       -0.0043626013 0.0045763706 -0.003013683 0.010068061
000240 5f 43 bc 3a ae 88 6e bb 9f 53 62 3a f0 fd 69 bb
       0.001436334 -0.0036397385 0.00086336763 -0.0035704337
000250 4e e3 ac 3b 05 c0 74 38 3e 43 15 bb fe 13 cd 3a
       0.0052761203 5.8352965e-05 -0.0022775675 0.0015646217
000260 be 58 9d ba ed 96 25 bb fe e4 e8 bb cf 57 38 3b
       -0.0012004597 -0.002526696 -0.007107376 0.002812851
000270 2f 99 c4 bb 6b 97 50 bc 84 2e 79 ba 37 af 52 3b
       -0.005999706 -0.012731413 -0.00095055276 0.0032147893
000280 bd a4 83 3b f9 c6 2f bb 1e 5e 40 3c a4 69 8a 3b
       0.004017441 -0.0026821478 0.011741189 0.004224019
000290 e9 5a 3e 3b 04 f2 dc 3b 36 7d fc ba 0c d1 ef 3b
       0.0029045886 0.0067427177 -0.001926339 0.0073186215
0002a0 ba ff f0 3b ad 00 92 bb 61 1c 81 ba 9a df 50 3c
       0.0073547037 -0.004455647 -0.0009850377 0.012748623
0002b0 e6 60 48 3b b2 5d 6e 3b 44 21 20 ba 34 59 31 3b
       0.0030575334 0.0036371765 -0.00061084726 0.0027061226
0002c0 45 80 a0 bb b6 c2 94 3a 15 0b cc 3b 45 1b 0e 3c
       -0.0048981034 0.0011349532 0.006226907 0.008673494
0002d0 f6 a4 ce bb ca 63 c1 3b c8 03 f5 3b 19 04 31 bc
       -0.006306286 0.0059017884 0.0074772574 -0.0108042
0002e0 6a 35 12 bc fa 96 47 b9 3d 2e c1 3b 92 89 0e bc
       -0.008923868 -0.00019034362 0.0058954046 -0.0086997915
0002f0 54 ea 1f bc f9 82 11 bc ea ab 1b bc b7 ef 91 3c
       -0.009760458 -0.008881324 -0.009501437 0.0178145
000300 33 00 c5 3b e2 e3 a4 3b 33 19 2e 3c db a4 31 b9
       0.0060119866 0.0050320486 0.010626125 -0.00016941449
000310 80 ac 81 bb dd e1 23 3a d3 2a 41 3c cc 27 4a 3c
       -0.003957331 0.0006251613 0.011789995 0.01233859
000320 e4 95 f3 3b 81 6d ae bb e9 60 0b bc f7 a9 70 3b
       0.00743364 -0.0053231125 -0.008506992 0.00367224
000330 4e 5b ed bb 54 5b f6 3b 89 19 f8 bb c0 4c 0c bc
       -0.0072435504 0.0075182114 -0.0075714034 -0.0085632205
000340 28 14 90 bb 8c 3b ee 3b 3c 4b b6 3b 5c a8 90 bc
       -0.004396934 0.007270282 0.005563168 -0.017658405
000350 6e 69 80 3b 0d 8c ce bb 6f df 35 bc 8e 3a d3 bb
       0.003918818 -0.0063033164 -0.011100634 -0.0064461892
000360 a8 78 4d 3a 3f 27 bd 3b ad 24 20 3b bf 3e bc 3b
       0.00078381086 0.0057725008 0.0024435923 0.0057447846
000370 d0 17 50 bb 39 ed a4 ba 92 b3 19 bb 4b 74 85 39
       -0.0031752475 -0.0012582905 -0.002345298 0.00025454382
000380 8e 27 3c ba b3 51 40 bc 19 1c fa 3b 08 29 93 bb
       -0.0007177525 -0.011738229 0.007632744 -0.0044909753
000390 f7 47 ba 3b ea 16 b5 bb 73 31 00 bc 98 aa 46 3b
       0.0056848484 -0.005526413 -0.00782429 0.0030314084
0003a0 f3 ae 15 3c 85 68 e1 bb ca d4 67 3c 46 d8 12 3b
       0.009135949 -0.006878915 0.014149854 0.002240674
0003b0 dc b3 0c bb e5 4a 82 3c e2 68 37 3c bd b3 86 3a
       -0.002146951 0.015904853 0.01119444 0.0010276955
0003c0 15 36 c0 3b 18 7e c0 ba 15 17 12 39 e2 c3 63 bc
       0.005865822 -0.0014686016 0.00013932244 -0.013901683
0003d0 a0 0e 02 3c 0f 8e 69 3b 92 7f 7b 3a bb bf ce ba
       0.007938057 0.0035637652 0.00095938996 -0.0015773693
0003e0 b5 94 34 3b 82 17 26 bc 6f ee 9d bb fe 48 b3 bb
       0.0027554457 -0.010137441 -0.0048196833 -0.005471348
0003f0 c1 d5 55 3b 67 23 93 3b 3c 21 d0 bb be 03 40 bc
       0.0032628628 0.0044903043 -0.006351618 -0.011719642

network_body._body_endoder.seq_layers.2.weight f4 [256, 256]
000000 95 d4 ef bd d6 3a 89 3d 9c 97 7b bc 95 bf 11 bc
       -0.11710469 0.06700675 -0.015355971 -0.008895774
000010 b3 b0 bb bb 73 51 b1 bd 61 4b 96 3d a2 d0 ca bb
       -0.0057278513 -0.08658113 0.07338596 -0.0061894218
000020 12 2e f1 bc dd dd c7 bd 23 50 1f bd 7f 03 37 3d
       -0.029440913 -0.09759114 -0.038894784 0.04468107
000030 47 72 04 bd 45 e7 b7 3c 3d 82 c3 3c 5d 66 3d bd
       -0.032335546 0.022449145 0.023865813 -0.0462402
000040 41 44 fc bd ee bb 42 bd 66 71 b0 3d 97 1c 08 bd
       -0.12317706 -0.047542505 0.08615379 -0.03323039
000050 0b 0d a9 bd a1 3b 93 bc a3 ff d5 3c 4d 87 03 be
       -0.08254441 -0.01797277 0.026122874 -0.12844582
000060 e4 ef 05 3d 82 88 c4 3d 4a c4 d4 3d 13 38 c2 bd
       0.03269948 0.09596349 0.10389002 -0.094833516
000070 4e e7 48 bd 13 79 8a 3c 7a 51 46 bd 27 f8 60 3c
       -0.049048714 0.016903436 -0.048417546 0.013731039
000080 8a 5e 37 3d 25 39 5f bc fd ff ad 3c 64 51 aa bd
       0.044767894 -0.013624464 0.021240229 -0.08316305
000090 4c 4a 01 3e 4f 59 b9 bd 55 61 da bd e4 4d 11 bd
       0.12625998 -0.090502374 -0.10663096 -0.035474673
0000a0 85 a3 36 3c a6 72 8d 3d 8f 73 dc 3d f8 b3 23 3c
       0.0111473845 0.06906633 0.107642286 0.009991638
0000b0 1d 7c 92 bc 02 28 90 bd 29 4c 43 3d 90 ca 1c bc
       -0.017881447 -0.07038881 0.047680054 -0.009569779
0000c0 80 2c 00 bd c3 2e e3 3d 30 a7 a4 3b be 9d c0 3d
       -0.03129244 0.110929035 0.005024813 0.09405087
0000d0 51 7a a3 3d 57 c9 fe bc b0 55 1a 3d 3e 6e 9c 3d
       0.079823144 -0.031101866 0.037679374 0.076382145
0000e0 f2 66 a6 3b d2 29 19 bc c6 cb ab bd 2b e4 62 bc
       0.00507819 -0.00934835 -0.08388476 -0.013848345
0000f0 28 b3 1c 3c 71 58 e4 bc ff 18 9f bd 67 4a 06 bc
       0.009564199 -0.027874203 -0.077684395 -0.00819645
000100 73 cf f3 3d d9 38 e9 bd 42 d7 e0 3d fc 87 3f bd
       0.11904802 -0.11387796 0.10978557 -0.046760544
000110 4e 0b 3d bd ba 94 8f 3b 77 57 83 bd 8b 60 4e bc
       -0.04615336 0.0043817433 -0.06413167 -0.01259626
000120 22 ea 63 bd cc 03 a6 bc ee 32 86 3d b8 26 32 3d
       -0.05564321 -0.020265482 0.06552683 0.043493956
000130 b3 10 9f bd 98 69 5a 3d 62 d9 8e bd ea 67 84 bd
       -0.07766857 0.05332336 -0.06975056 -0.064651325
000140 4c 9e 13 3e 81 85 63 3c 3e 00 04 3e f5 c5 c2 bd
       0.14415854 0.01388681 0.12890717 -0.095104136
000150 be 43 f3 3c 7f 65 19 3d 69 d9 0c bd 09 43 d7 3b
       0.029695388 0.03745031 -0.034387026 0.0065692705
000160 9f c4 fb 3d 20 cd 2d 3d 07 da ea bc 0e 38 17 3e
       0.12293362 0.04243195 -0.028668417 0.14767477
000170 37 61 56 3c 0d 33 ec 3a e0 1d ee 3b d8 a0 21 3c
       0.013084701 0.0018020585 0.007266745 0.009865008
000180 38 17 9b bd 96 10 29 3c 06 e8 98 3d 3c dd 17 bd
       -0.07572788 0.010318896 0.0746613 -0.03707622
000190 95 2e 8a 3d d4 f5 f0 bb 44 dc d0 bd 20 3c 24 bc
       0.06747166 -0.0073535237 -0.10198262 -0.010024101
0001a0 53 93 15 3d 2c 8e ff bb 80 8d 88 bd d3 a6 d6 3a
       0.036517452 -0.0077989306 -0.06667614 0.0016376622
0001b0 b8 12 49 bd 0a 61 64 3c 31 dc 5b 3d 28 70 98 bd
       -0.049090117 0.013939152 0.053676788 -0.07443267
0001c0 47 d5 06 3c 23 ac 50 bc 86 2d 44 bd 83 0b 2e bd
       0.00822956 -0.012736353 -0.047894977 -0.042491447
0001d0 80 1d 08 bc bd 57 69 bb 96 a6 82 3c ad 89 1b bd
       -0.008307815 -0.0035605275 0.015948575 -0.037973095
0001e0 c9 b9 2f 3d 03 12 26 3c eb d8 52 bd 1a ed dd bc
       0.042901788 0.01013613 -0.0514764 -0.027090598
0001f0 89 d7 a2 bd 75 31 f5 3b 47 84 a0 bd b3 79 63 3d
       -0.07951266 0.0074827024 -0.0783773 0.055535983
000200 dc f5 b9 bc 4e 95 a1 bd 93 4d 7c bc 0b 6a 72 3c
       -0.022700243 -0.07889806 -0.0153993545 0.01479579
000210 49 bc 14 3e 26 3f e8 3d 00 47 40 3d 5a c4 0b 3e
       0.1452495 0.113401696 0.04694271 0.13649121
000220 bc 37 a6 3d 25 41 a1 bd 03 5b 96 bc 2d d6 3d bc
       0.08116099 -0.078737535 -0.018353945 -0.011586708
000230 23 ac b5 3c 81 3e a8 bc 0f 61 69 3d 99 3f d3 bb
       0.022176808 -0.020537617 0.056977328 -0.0064467904
000240 85 6c aa bc 7f 3a 28 3c 33 6f ee 3d 43 b1 90 3d
       -0.0208037 0.010267853 0.11642303 0.0706506
000250 c3 b4 48 bd bb f9 c1 3d 3c 33 09 bb ca 2d c7 3b
       -0.049000513 0.094714604 -0.002093508 0.0060784565
000260 7c 90 34 bd f3 28 2a bb 55 7c 9e 3d 62 24 a1 3d
       -0.044083104 -0.002596435 0.07738558 0.078682676
000270 6b bd c6 bd 02 d4 1c bd 03 e2 bf 3b df 6f ac bd
       -0.09704097 -0.038288124 0.0058558 -0.08419775
000280 a5 1e a3 bd 4b 95 a8 bd 61 99 07 3e 3c 6f 7c 3d
       -0.07964829 -0.082316004 0.13242103 0.06162952
000290 40 89 18 be e5 06 bc 3d 0b e2 91 bc 2d 52 6a bc
       -0.14896107 0.091810025 -0.017807981 -0.014301819
0002a0 a0 ff 0b bd 31 93 a0 bc a1 e6 1e 3d 45 ce d3 bd
       -0.03417933 -0.019601436 0.038794164 -0.10342077
0002b0 65 f4 94 3b 5a 89 b7 3d 7e 73 7f bd d3 35 0c bd
       0.0045457357 0.089617446 -0.062366 -0.03423102
0002c0 e4 c4 78 3d 8e 5e 18 bd 8d 84 ce 3b fd b2 5d bc
       0.060734645 -0.03719955 0.0063024224 -0.013531444
0002d0 fe 70 8c 3d 54 68 02 bc a9 84 77 bd f0 ea f4 bd
       0.06857489 -0.007959444 -0.06042925 -0.11958873
0002e0 3d 54 27 bc b0 e8 73 3d 8e df f4 3d 4b a2 5e bd
       -0.010212955 0.05954808 0.11956702 -0.054353993
0002f0 72 d5 ab 3d 75 75 c0 bb cb 2b 84 bc 92 39 8d 3b
       0.08390321 -0.005873377 -0.016134163 0.0043098414
000300 a3 d0 13 be fa e8 df bd 0f 37 89 3b 9b 9c 0a bd
       -0.14435057 -0.10933109 0.0041874717 -0.033840757
000310 a0 90 c6 3b d5 19 bb bd ca 78 36 bd e6 6b 1c 3e
       0.006059721 -0.091357864 -0.044548787 0.15275535
000320 34 bc b9 3c 57 ab dd bc 4b 63 83 bd 2a 5d 12 bd
       0.02267275 -0.02705924 -0.06415423 -0.03573338
000330 78 11 f9 bc cc 4a 25 bd e8 b5 42 bd 5e 48 b7 bc
       -0.030403838 -0.040354535 -0.04753676 -0.022373375
000340 99 a7 c1 bc 03 42 90 3d 07 59 df bc 51 db 77 bb
       -0.023639487 0.07043841 -0.027264131 -0.0037819932
000350 fa 3c 9b bc 93 2c 6f bc cb 1d ca bd 54 3b 04 3d
       -0.018949974 -0.01459803 -0.09868964 0.032283142
000360 a5 66 4b bd 10 9e 26 3b d9 ea 65 bd b9 40 da bd
       -0.049658436 0.0025423802 -0.05613217 -0.10656876
000370 9c 7e 44 3c 0d ca 44 3d c9 fa 30 bd ed e7 81 3c
       0.011993077 0.048044253 -0.043207917 0.015857661
000380 c5 21 63 bd ca 81 57 3d cd a7 37 bd 41 53 b9 bc
       -0.055452127 0.05261401 -0.04483776 -0.022622706
000390 7c 83 04 be 0b 1b b9 3d c4 ea b3 bd 31 ac 8b 3d
       -0.12940782 0.09038361 -0.08785012 0.06819952
0003a0 1c ac 83 3d 1f 9f 65 3d c4 ab 7a 3d ef 5f bf 3d
       0.06429312 0.056059953 0.061198965 0.0934447
0003b0 11 50 9d bd 87 44 13 bc 5f d1 55 3c 83 4c ae 3d
       -0.07681287 -0.008988506 0.013050406 0.08510687
0003c0 63 64 b6 3d 47 c2 b7 3b 51 a9 9e bd 8e c2 08 3d
       0.08905866 0.0056078765 -0.07747138 0.033388667
0003d0 ec a2 eb bc f4 f9 09 3e 56 8c 62 bd b6 e0 93 3d
       -0.02876421 0.13474256 -0.055309616 0.072205946
0003e0 8c e3 8c 3d f8 ac a1 bd 57 17 0d bd b2 86 3b bd
       0.068793386 -0.07894319 -0.034446087 -0.045782752
0003f0 4c c2 d2 bb 91 72 7f bd db 97 1c bd 2e 69 4a 3a
       -0.0064318534 -0.06236512 -0.03823076 0.00077213615

network_body._body_endoder.seq_layers.2.bias f4 [256]
000000 47 45 8b bb b0 d4 cf bb b3 c9 00 39 55 d9 38 3b
       -0.004250202 -0.006342493 0.0001228217 0.0028205712
000010 06 aa 33 ba 52 ec 44 bc 72 20 ce 3b 8f 8d 10 3c
       -0.00068536436 -0.012019234 0.006290489 0.008822813
000020 18 d8 a2 3a 84 8f 0d 3c 79 7c d3 bb 64 e3 21 3c
       0.001242402 0.008640174 -0.0064540473 0.009880874
000030 0f 4e cc bb d3 07 f8 3b 8e 30 da ba 57 0c 9b bb
       -0.0062348912 0.007569292 -0.001664655 -0.0047316956
000040 f9 7f c9 3b 79 7b b5 3b 54 ab 16 bb bc 82 06 3c
       0.0061492887 0.0055384007 -0.0022990303 0.00820988
000050 56 be 8c ba e2 5a 03 bc d7 3b cc 3a 7f 7e a3 3a
       -0.0010737877 -0.008017274 0.0015581799 0.0012473612
000060 d0 1d 55 bb 88 3b 27 3c 9b 2a da 3b 4d 68 f2 bb
       -0.003251899 0.010207064 0.006657911 -0.0073976875
000070 6e 0e 50 3a 8c 0c f4 3a 40 b1 3c 3b d8 be 9b 3a
       0.00079367205 0.0018619462 0.0028792173 0.0011882437
000080 ba e0 d6 bb fb 66 8c bb 4b ef 5f 3c b7 9c 58 ba
       -0.006557551 -0.004284737 0.013667892 -0.00082630984
000090 1c 45 6e 3b c6 24 bf 3a eb f7 dc 3b 7f 38 03 bc
       0.003635711 0.0014583103 0.0067434213 -0.008009075
0000a0 93 ee 23 3c 03 cb 46 ba 5c f0 07 3b 30 2a ac 3a
       0.010005611 -0.00075833517 0.002074263 0.0013135131
0000b0 89 37 af 3b 9f e7 11 3b fb ea fc 3b 66 1c 79 3b
       0.0053471965 0.00222633 0.0077184415 0.0038011312
0000c0 4b 6d 9b bb 9a 37 f5 3b db 65 47 3b 16 16 65 3b
       -0.0047432533 0.007483435 0.00304257 0.0034955791
0000d0 94 33 3a 3b cc 54 09 bc 69 76 31 3c 31 4c b9 39
       0.002841209 -0.008382034 0.010831454 0.00035342717
0000e0 ad 88 2c bc 81 ce 07 3c f4 e4 bc 3b 83 c5 bb 3b
       -0.010530633 0.00828898 0.005764598 0.0057303323
0000f0 b1 e2 db bb a1 d1 b0 ba 24 74 81 bb f6 ea 23 3c
       -0.0067103733 -0.0013490209 -0.0039506126 0.0100047495
000100 a1 c6 d1 3b 1a 46 3e bb c1 e7 94 bc b6 18 02 3b
       0.0064018522 -0.0029033483 -0.018176915 0.0019851155
000110 25 6f 03 3c 61 a5 57 3c b8 db b0 bb fb 01 1d 3c
       0.008022104 0.013161988 -0.0053972863 0.009582992
000120 5b 33 0c bb 80 3b 60 3b 0f 77 13 3c 3e 45 9f 3b
       -0.0021392915 0.0034215152 0.009000554 0.0048605492
000130 78 1c 1b 3c 18 ec 09 bb f3 a9 94 3a 42 13 d5 ba
       0.009467237 -0.0021045264 0.0011342153 -0.001625635
000140 49 83 9f 3b a9 ed 8c ba 37 26 39 3b 29 de 7d 3b
       0.0048679453 -0.0010751981 0.0028251538 0.0038737154
000150 d6 fa e6 ba 41 d6 3f 3b 44 bc 14 bc 0c 07 b6 3b
       -0.0017622362 0.0029271992 -0.009078089 0.0055550393
000160 48 03 cb ba ed 10 91 bb 89 51 01 bc d0 3e 9b ba
       -0.0015488649 -0.0044270665 -0.007892975 -0.0011844281
000170 ac 35 a7 b9 75 ed f0 bb 83 6f 89 3a b4 71 b2 3b
       -0.0003189271 -0.007352526 0.0010485504 0.0054456834
000180 c3 8b 33 3c 94 5b 08 3c 6d 4e 44 38 90 96 83 ba
       0.010958615 0.008322615 4.680308e-05 -0.0010039378
000190 a6 8c 2f 3b ea 33 7c bc 6a 79 16 bb f3 84 05 3b
       0.0026786714 -0.015393237 -0.0022960552 0.0020373433
0001a0 0d 14 11 39 5f 18 3e bb d0 ad aa ba dd df a2 bb
       0.00013835747 -0.0029006226 -0.0013021771 -0.0049705342
0001b0 2f 4a ba 3b c2 dc d9 ba 88 5a 4f 3c 31 d5 e8 bb
       0.005685113 -0.0016621577 0.012655862 -0.0071054925
0001c0 1b 2b 94 bb 7e a1 e9 3b 74 49 23 3a 96 0a 91 3a
       -0.00452174 0.007129847 0.0006228902 0.0011065777
0001d0 54 e6 02 bc a7 22 bc 3b 76 10 99 bb c0 92 79 3c
       -0.007989485 0.0057414356 -0.0046711517 0.015232742
0001e0 6a 6e 2f 3c cc 9f db bb 7e 79 86 3b 26 b1 14 bb
       0.010707477 -0.006702399 0.0041038385 -0.0022688597
0001f0 d1 3e ea 38 1e 5c 19 bb b4 32 bf 3b 1e 4f 42 3b
       0.0001116969 -0.0023400853 0.0058349017 0.0029649208
000200 4c a6 11 3c d3 cc df b9 26 6a 56 3c 9e 99 17 bc
       0.008889746 -0.0004268648 0.013086831 -0.009252934
000210 ee 4f 5f 3b 05 18 57 3b ca 28 4d bb fe 51 3e bb
       0.0034074741 0.0032820713 -0.003130483 -0.002904057
000220 73 a0 3a ba dc 22 e6 ba 7d c4 48 3a 85 35 e9 3a
       -0.0007119246 -0.0017557996 0.00076586736 0.0017792439
000230 f2 fc 51 3c be ae b4 ba fe f0 08 bc b1 92 ca 3b
       0.0128166545 -0.0013784987 -0.008358238 0.0061820378
000240 51 2c ca 3b f3 9b f1 3a 4c 9f 36 3c 06 2d 0c 3b
       0.0061698337 0.0018433317 0.011146378 0.002138914
000250 db f8 0d bc 63 e1 87 3b 8e ac ea 3a d5 8e c6 3b
       -0.008665289 0.0041467412 0.0017904209 0.0060595074
000260 21 e0 41 bb a8 03 89 3b 57 79 b2 3b 64 9b 4f 39
       -0.0029583054 0.004181344 0.0054465937 0.00019798946
000270 69 1b 84 3b d1 c0 23 3b 29 a4 9b b9 d8 99 90 3b
       0.004031588 0.0024986754 -0.00029686213 0.004412871
000280 ed f1 11 bc cf 87 4d 3c 74 4d bc ba a0 6e 86 ba
       -0.008907777 0.012544586 -0.0014366345 -0.0010256357
000290 ac b9 a9 bc 83 f4 f1 b9 83 92 2d 3a 46 95 84 bb
       -0.020718418 -0.00046149277 0.0006621258 -0.004046115
0002a0 90 f7 87 bb 53 d0 9b 3b fb bc 19 3c 48 77 60 3b
       -0.004149385 0.004755059 0.009383435 0.0034250785
0002b0 31 04 1a 3b 32 e8 0b bc 1b 52 f3 3b fa bf 00 bb
       0.0023501033 -0.008539246 0.007425559 -0.0019645677
0002c0 a5 a8 68 3a d8 a8 0b 3c 81 43 32 bc 7e 31 2a bc
       0.00088752276 0.008524142 -0.010880352 -0.010387776
0002d0 44 86 c1 3b 88 f2 9d 3b 55 2f 0c bb d2 18 6d bb
       0.0059058983 0.0048201717 -0.0021390517 -0.0036178124
0002e0 a2 2d d9 3b f5 1f 13 3b 75 87 4d 39 b9 b9 dc 3b
       0.0066277543 0.0022449468 0.00019600785 0.006736007
0002f0 01 6f c8 ba c2 74 ed 3a ac 09 11 3b d9 98 1f 3b
       -0.0015291871 0.0018116462 0.002213101 0.002435258
000300 de b2 ae ba 0a a5 0f 3a 89 95 bc ba 96 c3 21 39
       -0.0013328453 0.000547961 -0.0014387827 0.00015427018
000310 82 39 f4 3a dd cc 76 bb 1b b9 0e 3c d5 7f 81 bc
       0.0018632861 -0.003765873 0.008711125 -0.015808025
000320 a4 52 04 bb a5 4b 4b bb d0 5d a0 3a 96 ab 2a bb
       -0.002019086 -0.003102043 0.001223499 -0.0026042215
000330 a4 7a 15 bb 5c 99 c0 3b 90 9d 83 3b f0 78 84 ba
       -0.0022808695 0.005877657 0.0040165856 -0.0010106843
000340 3f af a4 b9 5f cc 00 3c c3 19 b7 3b d3 dc 9e ba
       -0.00031411086 0.007861226 0.005587788 -0.0012120254
000350 49 21 94 3a 4d d2 e1 bb f7 3e 82 ba dd 89 be 3b
       0.0011301424 -0.006891525 -0.0009936978 0.0058147744
000360 bd 5d 07 3c ba d5 3e bb 4c 63 72 bb 73 ba 86 3c
       0.008262095 -0.002911909 -0.0036985455 0.016446328
000370 44 c2 b9 ba 43 f5 3d 3b 43 be f6 bb e2 93 d2 3b
       -0.0014172276 0.0028985299 -0.007530005 0.0064263204
000380 c9 61 04 3c 88 b8 9d bb d5 3b aa bb 48 c7 55 bb
       0.008079954 -0.0048132576 -0.005195121 -0.0032620002
000390 19 b9 7e 3b f2 ff 1d bc 92 a6 63 3b b3 98 09 bb
       0.003886765 -0.009643542 0.0034736735 -0.0020995557
0003a0 05 81 bc 3b fb 0b 40 3b cf 3a 4d 3b d9 b9 97 3b
       0.005752685 0.0029304016 0.003131557 0.004630309
0003b0 12 a7 58 3b 33 90 d8 3b 0b 30 f1 3b 0e 6c 52 39
       0.0033058566 0.0066089868 0.0073604635 0.00020067414
0003c0 1d f6 48 bc 4a 46 c5 3b c4 21 f6 b9 d2 e2 8d bc
       -0.012265709 0.006020342 -0.00046945934 -0.01732007
0003d0 17 04 0e 3b 72 85 90 3b 61 12 75 3b cb bc 04 bc
       0.0021669918 0.004410439 0.0037394988 -0.008101652
0003e0 ae 17 5b 3c 9f d4 99 3b 1e ed 0a 3b b9 d3 aa bb
       0.013372345 0.004694536 0.0021198462 -0.0052132276
0003f0 57 34 cd 3b df 48 f6 bb 8f 16 16 3c c2 2f 3f bc
       0.006262343 -0.007516011 0.009160652 -0.011669101

action_model._continuous_distribution.log_sigma f4 [1, 5]
000000 04 98 5d 3d 53 fc 53 bb c0 cc 84 3c c6 b8 47 3c
       0.05410005 -0.0032346442 0.016210914 0.0121900495
000010 86 92 c3 bb
       -0.0059683947

action_model._continuous_distribution.mu.weight f4 [5, 64]
000000 99 a7 3e bd 62 e4 2c bc 2f 80 45 3d c0 0d aa bc
       -0.046546552 -0.010552498 0.04821795 -0.02075851
000010 b0 6f 0e 3c 81 87 43 bd 68 69 a3 bc 4d b9 04 bd
       0.008693621 -0.04773665 -0.019947723 -0.03240328
000020 f4 db f7 3c bc 1c 2c bb 88 83 3f bd 97 74 7f 3c
       0.030256249 -0.0026262244 -0.046756297 0.015591762
000030 f2 c5 c9 3c 7b f1 11 3c 5d 9f dd bc 21 b8 2a 3d
       0.02463052 0.008907671 -0.02705353 0.041679505
000040 b2 6d 46 3c d1 04 85 3a b0 30 3f bd 94 57 2b 3c
       0.012111114 0.001014853 -0.04667729 0.010457892
000050 73 7b e7 bb 6c ad 98 3c 4a 30 6c 3b 11 71 93 bc
       -0.007064277 0.018637381 0.0036039525 -0.01799825
000060 45 82 ca 3c 04 a1 1d bd 25 d4 01 bd 99 2c 11 3d
       0.02472032 -0.038483635 -0.031696457 0.035442922
000070 e5 9b fb ba 8e 59 2c 3d ac 7f 17 3d d4 17 86 bd
       -0.001919624 0.042077594 0.03698699 -0.065475136
000080 58 a4 71 bb 52 1d 8b 3d dc a0 fc bc a3 a2 e4 bb
       -0.0036871638 0.06792702 -0.030838422 -0.0069773956
000090 d0 03 8a bc 5e 7a 86 3c 9d dc 9e bc 13 70 ff bc
       -0.016847521 0.016415771 -0.019392306 -0.03118137
0000a0 50 88 4c bc 36 15 46 3c 2f 3a 86 bc d9 5f 5f bc
       -0.012483671 0.012090018 -0.016385166 -0.013633692
0000b0 b0 9b 12 bd 58 b5 2d 3d 22 54 9c bb 4e a9 03 bb
       -0.035793006 0.04240927 -0.0047707716 -0.0020089927
0000c0 4f 54 23 bd bd 22 7a 3c 7f ce 1b 3d a3 33 5d bd
       -0.039875325 0.015267071 0.038038727 -0.054004323
0000d0 f0 07 1f bd 59 6f ce 3c 01 d3 f6 bb b8 bd 28 3c
       -0.03882593 0.02519958 -0.007532478 0.010299139
0000e0 7f 59 82 bd 3c 86 40 bc c4 30 ce 3a 40 3e 4c 3d
       -0.06364726 -0.011750754 0.0015731086 0.049864054
0000f0 b3 9d e3 bc f9 fc 99 bc a5 80 24 3c b1 fd 92 bc
       -0.027785158 -0.018797385 0.010040437 -0.017943235
000100 ee 12 74 37 1d 56 ab bc 85 8b 97 bb d1 3d 9d bc
       1.4547941e-05 -0.020915085 -0.0046247863 -0.019194515
000110 71 ca 9c bb dd 25 8b bc 60 ed 93 3d b9 55 1c 3d
       -0.004784875 -0.016985828 0.0722301 0.03816769
000120 3f e0 49 3d 68 4d 52 3c 8d 4d e1 bc d8 c5 0b 3d
       0.049286123 0.012835838 -0.0275028 0.034124225
000130 e0 41 5b 3d f1 ac b5 bc 55 33 76 bb e4 dd 6e 3c
       0.05352962 -0.022177191 -0.0037567217 0.01457927
000140 c5 ee d1 bc a1 b7 ae bc e6 be 2f 3d c8 ec 23 bb
       -0.02562655 -0.021327795 0.042906664 -0.0025012959
000150 3d f2 63 3d 23 9e bb bc 4f 42 3e 3d 5d 56 b6 bc
       0.05565094 -0.022902554 0.046449956 -0.022257978
000160 eb a3 05 3b 40 1a d2 bc 04 e1 6d 3d 74 a5 dd bc
       0.0020391892 -0.025647283 0.05807592 -0.027056433
000170 10 f4 57 3c db 8c a3 3b bd 34 9a 3d b7 67 54 3c
       0.013180748 0.0049911565 0.0752959 0.012964181
000180 53 39 1d 3d c7 7b 55 bc 57 3d fb 3c aa f4 73 3c
       0.038384747 -0.013029999 0.030668898 0.014889875
000190 cf f5 61 3d b6 fb d9 bb bb 5b fa bc dc f7 91 bd
       0.055166062 -0.0066523207 -0.030561319 -0.071273535
0001a0 7d 52 33 bc f9 22 60 3d 02 ff 88 bc 75 20 44 3d
       -0.01094496 0.054720853 -0.01672316 0.047882516
0001b0 d8 f1 14 3d 54 4c 23 bd 01 02 2e 3c d5 34 29 3c
       0.036363453 -0.039867714 0.010620595 0.010327538
0001c0 8e a1 91 3d 51 25 9d 3c 9f aa f0 3b 0d ca a5 3c
       0.07110892 0.019182833 0.0073445584 0.020237947
0001d0 a8 85 ee ba 89 76 13 bc c2 91 92 bb 20 be 1b 3d
       -0.0018197792 -0.009000429 -0.004472942 0.038023114
0001e0 bb 8a 68 3c df 7f 2a bd 50 7a 15 bb ef 53 2a bc
       0.014193232 -0.041625854 -0.00228085 -0.010395988
0001f0 af 75 24 bd ce 3e 58 3c 55 72 63 bd b7 d1 50 3b
       -0.040151294 0.013198568 -0.055528957 0.003186328
000200 43 20 0d bd d5 7f 4d 3b cf e1 88 3c 21 ee d9 bc
       -0.034454595 0.0031356711 0.016709236 -0.026602807
000210 43 97 36 bc 08 6c cb 3c 2d 70 cd bc cd 54 21 3c
       -0.011144462 0.024831787 -0.025077904 0.009846878
000220 ee 70 22 3d 3c b0 4f 3d ed 64 22 3b 56 16 56 3c
       0.03965848 0.05070518 0.0024779395 0.013066849
000230 7c 98 89 3b 8b 94 50 bb 71 01 a8 3c f0 d6 3f 3c
       0.0041990858 -0.003182682 0.0205085 0.01170896
000240 e8 f2 c5 bc 51 e4 dc 3c a8 17 54 bc 17 b4 75 3b
       -0.024163678 0.026964338 -0.012945093 0.0037491375
000250 48 43 b8 3d d9 f0 81 ba 2d 10 9e bc 64 3e 8b 3d
       0.08997208 -0.0009913697 -0.019294823 0.067990094
000260 ef a6 84 3d dd eb e8 bc db 4a f5 bc 97 01 e1 bc
       0.064771526 -0.02843278 -0.02994292 -0.027466578
000270 ca 30 57 3c be ed 8c 3c b9 f7 26 bd 8c f0 52 bc
       0.013134191 0.017203208 -0.04076359 -0.012874734
000280 4f a4 a6 bc 3a b7 99 3d 30 47 87 bd d0 c9 2a bc
       -0.02034202 0.07505651 -0.06605375 -0.010424092
000290 71 ba 8d 3c cd 97 1f bc 5f 17 a6 3a 9c 3e a7 3c
       0.017300816 -0.009740782 0.001267176 0.020415597
0002a0 8e ff 00 bd e9 80 0a 3c 64 39 ec 3c 47 e9 95 3c
       -0.031493716 0.008453586 0.02883596 0.018299712
0002b0 78 69 c5 bb 89 ae 14 3c b4 f5 ca 3a fb 59 84 bc
       -0.0060245357 0.009074816 0.0015484602 -0.016156187
0002c0 c3 a5 54 3d d6 b4 18 3d 26 0e a4 bb f6 af 72 3d
       0.051915895 0.037281834 -0.0050065694 0.05924984
0002d0 4b 7f b5 39 a5 db 67 3d 67 6e c7 bc d2 20 00 3d
       0.0003461785 0.056605954 -0.024344636 0.0312813
0002e0 fa 09 3d bc a5 00 5f 3c a9 5d 63 3c 70 ea a8 3c
       -0.011538023 0.0136109935 0.013877311 0.020619601
0002f0 03 7a eb 3c da bc 53 3c a6 cd 9c 3c 6a 28 5a bc
       0.028744703 0.012923444 0.01914103 -0.0133152995
000300 f9 e6 ce bc 7f 2b a5 bd cc 9e 96 bd c6 35 5b 3d
       -0.02525662 -0.08064937 -0.07354507 0.05351808
000310 ab fd 6c bd d7 30 c4 3d 6e c2 e1 bb f6 f4 93 bc
       -0.057859104 0.09579628 -0.006889633 -0.018061142
000320 ec 29 17 bd 43 1e 7e bc c0 60 7a 3c e6 10 68 3d
       -0.036905214 -0.015510145 0.015281856 0.05665674
000330 e2 a3 1d bd 67 e3 a1 3c eb 9b 99 bc 2d 1b cf bc
       -0.03848637 0.019761754 -0.018751105 -0.025281513
000340 29 f5 b3 3c d3 32 fb ba 8e 9d 2b 3d 09 d8 04 bd
       0.021967487 -0.0019164927 0.041898303 -0.03243259
000350 29 2c ca ba 84 22 09 3d 6b 4f 8d b9 d1 fd c6 bc
       -0.0015424538 0.033480182 -0.00026952787 -0.024290951
000360 69 e1 a8 bb d4 ae 6d ba 12 8c 48 bd c5 5a ee 3c
       -0.005153824 -0.0009066884 -0.048961706 0.029096017
000370 ac e2 84 bd 2e d3 14 bd d7 3b 18 bd 16 cc 89 bc
       -0.06488547 -0.03633421 -0.037166443 -0.016820949
000380 43 32 e7 bb d5 0e 0b 3c 0b ef 4a bd 31 8b d9 3c
       -0.007055552 0.008487423 -0.049544375 0.02655563
000390 da 71 ba bd 09 57 b3 bd 76 22 41 bc be c0 a3 bd
       -0.09103747 -0.08756835 -0.011788001 -0.07995747
0003a0 01 0a cb bc 4e 2d 2e 3d 4c 83 c7 3c 67 e7 b9 bb
       -0.024785044 0.042523675 0.0243546 -0.0056733373
0003b0 46 f8 3a bd 9f 6c 08 3d 90 2e a6 3c 61 36 05 bd
       -0.04564693 0.033306714 0.020285875 -0.032522563
0003c0 b3 c0 38 bd 35 b5 ce 3b 70 81 2b 3b 64 2b 87 3c
       -0.045105647 0.0063082227 0.002616968 0.016500182
0003d0 cf 78 ea bb c3 a5 42 3c 7d 3e 62 3c c0 0c 76 3c
       -0.007155515 0.011880341 0.013808844 0.015017688
0003e0 ff f7 9a bc 4c ee ef 3c 1b 8d 15 bc e6 69 ba bd
       -0.018917082 0.029288433 -0.00912788 -0.0910223
0003f0 7d 63 2b 3c 67 b7 1c 3c 42 db 55 bc db 35 8c 3c
       0.010460732 0.009565211 -0.013052763 0.017115524

action_model._continuous_distribution.mu.bias f4 [5]
000000 8e 4b 11 3b 83 72 05 ba e9 f0 31 bc 18 e7 b6 3c
       0.0022170278 -0.0005090611 -0.01086066 0.022326991
000010 5f bd c6 3a
       0.0015162638

99 f4 [1, 256, 256]
000000 ee f3 c9 3c 8e 88 1e 3d 69 09 ff 3d af 22 db 3d
       0.024652448 0.038704447 0.12452967 0.10699975
000010 33 32 37 bd 59 d1 cf 3d 62 ff 76 bd 1c d8 0b bd
       -0.044725608 0.10147352 -0.060302146 -0.034141645
000020 2c e3 c7 3d e8 14 a0 bc 0e 32 43 bd f1 83 a0 bd
       0.097601265 -0.019541219 -0.047655158 -0.07837666
000030 27 5d d4 bd f5 43 99 3d 6b 52 85 3d 96 22 dd bd
       -0.1036933 0.07483665 0.065098606 -0.10797612
000040 9a 00 c6 3c b0 a8 ab 3d 2c 40 04 3e 56 78 ba 3d
       0.024170209 0.08381784 0.12915105 0.091049835
000050 8f 94 9c 3d f9 69 33 bd c3 9a 66 3d ba 0f 05 bd
       0.07645523 -0.043802235 0.056299936 -0.0324857
000060 e3 7a 01 3e 17 b9 b7 3b f7 3e cf 3d ac 80 dd bd
       0.12644534 0.005606781 0.101194315 -0.10815558
000070 cb cf 66 3d 6c 6e 5e bc d3 c9 ae 3d b6 4b 03 3e
       0.05635051 -0.013576131 0.08534589 0.1282185
000080 64 ea 27 3d a8 45 af bc f3 5a d3 bd 71 e9 4c 3d
       0.040995017 -0.02139552 -0.103200816 0.050027315
000090 89 95 6d 3d ac 1a 8d 3d ce 40 ad 3d 85 88 c8 3c
       0.058003936 0.06889853 0.08459626 0.02447916
0000a0 f0 77 69 3d 0c 09 f0 bd f2 b8 da bd 0a d8 bd bd
       0.056999147 -0.117204756 -0.10679807 -0.09269722
0000b0 af 15 03 bd 30 0f fa bd 32 b1 84 3d d0 8f 07 3d
       -0.0320031 -0.12209928 0.0647911 0.033096135
0000c0 d9 77 04 be d6 d9 d0 3d 11 a7 ea bd 24 5a cb 3d
       -0.12936343 0.10197799 -0.11457647 0.09929302
0000d0 f1 6d d6 3d d0 c4 a2 bd 2f 43 a6 3d 6e ba df 3d
       0.104701884 -0.07947695 0.08118283 0.109242305
0000e0 7f 8e b0 3d 45 b0 78 bc a9 6b 8f 3d 59 df 68 3d
       0.08620929 -0.015178745 0.070029564 0.056853626
0000f0 4f b7 97 bd bd 5f 64 bd e6 e7 81 3d 8d 16 b5 3d
       -0.0740801 -0.055755366 0.06343059 0.08842192
000100 c6 0b 15 3e 98 21 92 bc dd 5a 81 3d 0a cb 07 3c
       0.14555272 -0.017838284 0.06316159 0.008288154
000110 ba 11 0a 3d 9c 8b ed 3d 3b d6 fc 3d 06 29 1f bd
       0.03370831 0.11598894 0.12345549 -0.038857482
000120 95 c6 c9 3d 28 e3 05 3e a1 0c 58 bd e8 ba b7 bd
       0.0985233 0.13074934 -0.05274642 -0.089711964
000130 ee 3b 77 bd 8b 79 9f 3d 95 66 db 3d 4d 5e b3 3d
       -0.060359888 0.07786854 0.10712925 0.08758221
000140 38 7e b6 3d d1 d7 d8 3d 73 63 c8 bd 98 46 05 3e
       0.08910793 0.10588039 -0.097845934 0.1301521
000150 62 9d 55 bd 8d 24 0a be a6 5d e4 bd de 84 06 bd
       -0.052152045 -0.13490506 -0.111506745 -0.032841556
000160 ce 6e 74 bd ae 34 ae 3d 99 55 c7 3d a0 0a 14 bd
       -0.059675984 0.085061416 0.09733123 -0.036142945
000170 f3 0b e1 3d 9e d6 dc bd 49 c3 49 3c 64 a4 d2 bd
       0.10988607 -0.107831225 0.012314626 -0.10285261
000180 13 4e c3 bd 9b 61 5f 3d 68 aa e1 3c d5 19 d7 bd
       -0.09536376 0.054536443 0.027547076 -0.10502974
000190 d9 89 99 3c 82 61 b6 3d e2 ac 40 bc 43 8b c0 bd
       0.018742489 0.08905317 -0.0117599685 -0.09401562
0001a0 c1 5e ab bd f4 ca 7e 3d 98 4d dd 3c 7d 70 cb 3d
       -0.08367682 0.06220527 0.027014539 0.09933565
0001b0 28 2f 20 3d 8b 98 02 3c d1 d7 27 3d 1f fb 99 3d
       0.03910747 0.007970939 0.040977303 0.07518601
0001c0 83 4a d1 3c 5d 6c 3f bd 26 af 6b bd 44 e2 cb bd
       0.025548225 -0.046734203 -0.05754008 -0.09955266
0001d0 83 57 10 be 4d 32 e3 3c 1e d3 d2 3c e7 fc 92 bd
       -0.14095883 0.027733946 0.025735434 -0.071771435
0001e0 03 6f e4 3c 3b 1a 59 3b 24 9c d6 3d 32 47 bf 3b
       0.027884966 0.0033127207 0.10479 0.0058373446
0001f0 93 5d ff bd 7e f8 55 3d aa f6 fd bd 13 a7 9c bd
       -0.1246902 0.052238934 -0.12400563 -0.076490544
000200 48 77 6b 3d f9 b9 8a 3d ac 4a 9a 3d bb a1 b3 3d
       0.057486802 0.06773753 0.07533774 0.08771082
000210 60 e1 7c 3d 03 d2 cf 3d 0a 87 a9 bd fe 75 41 bd
       0.06173837 0.101474784 -0.0827771 -0.047231667
000220 f0 c4 b1 bd bc e9 d8 3d e7 97 ae 3c c3 81 03 3e
       -0.08680141 0.10591456 0.021312667 0.12842469
000230 53 16 b6 bd bc 87 c6 3d bc b3 05 ba 5a 6c b6 3d
       -0.08890977 0.09693858 -0.000510033 0.08907385
000240 18 9f 13 bd 16 47 ee bd 94 ab a2 3c 0e 01 a4 3d
       -0.036040395 -0.11634652 0.019857205 0.08008014
000250 38 d8 df bd dc 2d e5 bd db a0 b2 bd 7e da e9 3d
       -0.10929912 -0.111903876 -0.08722087 0.11418627
000260 0f 49 c4 3d 15 6a 2b bd 26 8a 8b 3c 36 c7 9b 3c
       0.09584247 -0.041849215 0.017033648 0.01901589
000270 24 08 0e bd 73 62 b5 bd 43 cd cd 3d 11 d4 92 bd
       -0.034675732 -0.08856668 0.10048916 -0.07169355
000280 49 76 b7 3d c4 9c 9e bd b6 76 bf bd b2 32 4f 3d
       0.08958108 -0.077447444 -0.09348814 0.050585456
000290 79 ab 8c bd 60 92 31 3d 3a 85 89 3d 99 9d ba 3d
       -0.06868643 0.043352485 0.06714864 0.091120906
0002a0 b2 60 e9 bd c8 13 2b 3d 32 14 a8 bd 0a e6 fd bb
       -0.11395396 0.04176691 -0.08206977 -0.00774837
0002b0 d0 78 04 be 44 dd 3c bd 69 4f fa 3d d3 c8 8e 3d
       -0.12936711 -0.046109453 0.122221775 0.06971898
0002c0 ac 6f 77 3d 54 82 c5 3d 29 95 f7 3d 63 48 bf 3d
       0.060409233 0.09643999 0.12088997 0.093399785
0002d0 33 9b af bc b3 ad e0 bd ba fd ce 3c d0 cf c0 bc
       -0.02143631 -0.109706305 0.02526747 -0.023536593
0002e0 28 c7 49 3d 33 23 6e 3d be f4 f3 bd 5b a5 94 3c
       0.049262196 0.058139037 -0.11911915 0.018145254
0002f0 a5 cf 09 be 2a 12 19 be 91 dc cf 3d d3 d6 95 bd
       -0.13458116 -0.14948335 0.101494916 -0.07316365
000300 68 00 45 bd 33 b3 8b bd d5 a9 61 bc 8f d2 ee 3d
       -0.04809609 -0.06821289 -0.013773401 0.116612546
000310 30 94 95 3c 2e 81 2c 3c f8 e2 75 3d 1e e8 74 bc
       0.018259138 0.010528846 0.060030907 -0.014947919
000320 fa f1 9c bd 34 ed bf bd 1e f0 02 be 8c dc 6d bd
       -0.07663341 -0.09371415 -0.1278691 -0.058071658
000330 dc 25 d4 bb fa 4b 6c bc ed 55 ba bd 83 bc dc 3d
       -0.0064742398 -0.014422411 -0.0909842 0.10778143
000340 eb 77 ca 3d a6 8d e6 3b 43 0a 69 3c 21 02 f3 3d
       0.09886154 0.007035929 0.014223638 0.118656404
000350 f7 1e a5 3c a4 e5 3e 3b 6f 01 19 bd f8 33 4a 3d
       0.020156367 0.0029128576 -0.037354883 0.049365968
000360 b2 fa f0 bd 14 88 a8 bb a8 e1 c8 bd 0f d3 a4 bd
       -0.11766566 -0.005143175 -0.098086655 -0.08048069
000370 1e 62 93 3c ff f4 12 be ef 7b 41 bc ea 8f 19 3c
       0.017991122 -0.14351271 -0.011809333 0.009372691
000380 c6 dd a5 3d ec 86 e4 bc 26 35 a0 3d 98 06 83 3d
       0.080989406 -0.027896367 0.07822637 0.06397742
000390 50 19 02 bd 6b 06 26 bd 1b 9c cb 3d ac 96 8c 3d
       -0.03176242 -0.040533464 0.09941884 0.06864676
0003a0 39 09 d4 bd 9e 7c b4 3d ac 2a 81 3d c7 c8 b2 bd
       -0.103533216 0.08812831 0.06306967 -0.087297015
0003b0 b6 6a a9 3c 77 64 d5 bd 64 28 88 bd 65 57 e2 3d
       0.020680767 -0.10419553 -0.06648329 0.110518254
0003c0 42 6d be bd 41 af 51 bd 35 a4 d9 bc 8d ac ae 3d
       -0.09298183 -0.051192526 -0.026567558 0.08529005
0003d0 89 09 08 3e 0e f4 e3 3d 92 3b 6e bd 3d 62 85 bd
       0.13284887 0.11130534 -0.05816228 -0.06512878
0003e0 5d de c8 3d 16 3b 06 3e d5 0e 3e 3c 4f 67 06 3e
       0.098080374 0.13108477 0.011600216 0.13125347
0003f0 66 c1 01 bd 60 29 ce bb d8 86 ac bd 98 26 67 bb
       -0.03167858 -0.0062915534 -0.08424157 -0.0035270806
